app/src/main/assets/foo.tflite (tflite, 663004 bytes, 14 tensors)

StatefulPartitionedCall/sequential_2/conv2d_4/Conv2D/ReadVariableOp f4 [1, 5, 5, 8]
00000000: 1d14 cfbc 821e 13be 5591 1abe 12e4 a9be
00000010: ec9f c8bd d301 773d c09b 5c3e e076 cbbc
00000020: bac1 df3d d941 22be 5d78 c43d d750 bebe
00000030: 85a1 243e 3eec 20be de12 383e 38f2 9e3d
00000040: a0db fd3d 1fb9 143e e150 14be a0d5 0d3e
00000050: 7c47 5a3e 20e4 bdbd 90f6 3e3e 9424 763d
00000060: af9d f03c 6600 44be 9d91 1c3e 2f92 17be
00000070: c263 323e ebcc afbd 1650 863e 0277 36bd
00000080: 56f2 743d bf0f 033e cd60 e83d 2b0f 0c3e
00000090: 27af 4a3d c4ca 0bbd 5081 c73d 3812 643e
000000a0: 6f8f 2ebc f4aa f13d 0f7d 08be 058c 6abe
000000b0: 094d 31be 6b18 80bd ddb4 2b3c 28dd ea3c
000000c0: b80e cb3d 817d 04be ffb9 fdbd 0f4e 65be
000000d0: f585 c7bc aec4 0a3d dca5 9cbc 9c6c 513c
000000e0: 1b41 713d 0b80 ba3d d756 babc 38d6 d2bd
000000f0: 76fd f53d b919 32be 6668 2a3e 0f12 34be
00000100: 8d65 5f3c 03f9 64be 58ff d0bd 170c 163e
00000110: 4758 553e d3bd ad3d dd3c 4d3c 660e 393c
00000120: f50a eb3a 8eae 923d 4edc 273e 0665 50bd
00000130: 1e53 f4bd 63f1 15bd 250d 673d ea49 6c3e
00000140: ca87 6c3d f39a 29be 5959 833c 1a7b 8cbe
00000150: 2da4 8abd 059c 903d 6f58 a1bd 2798 0dbe
00000160: 6a94 bdbd 634c 0a3e b4b5 b9bd 4d4e fabd
00000170: 7d7d 65be 2e65 bd3d c8ff 943d 29fa 80bd
00000180: a521 8d3d 2bbc 99bd 6815 183d a96a 89bd
00000190: 8fee 473d fc88 7d3d 4f42 20be d1e1 9bbd
000001a0: 3567 05bd d36c 283d 4e3d 00be a8fc f6bd
000001b0: e886 80bc 6505 083e 2760 2cbd 9fe9 0abe
000001c0: b09a 733d c329 7d3d 3456 ce3d 6e99 d03d
000001d0: 554d c43c 7c49 62bc 92a7 d4bd 518c 813e
000001e0: f2cb 45be ac5e 9cbb fb53 d63c ea71 abbd
000001f0: 6924 bebd 10bf f8bd 7935 07be 9902 55be
00000200: 0580 43bd 456b 033e 9687 343d 9a29 47be
00000210: 7dd6 d2bc 3dde 353d fb02 d4bd 28f8 e9bc
00000220: 9eac 10be da92 b13d cae3 81bd 3f24 b93d
00000230: ecec 3ebd 8e2b acbd 8d2f d9bd 1721 31bc
00000240: feee 85be 2f7c 46be 2151 a1bd bb66 5d3d
00000250: c44c 8d3d d300 033d db54 29be 3ece 433d
00000260: c076 e8bd 7d32 29bd 8e00 453e 3e04 143e
00000270: 421a 633d cc6e 45be 01cc e4bd a31e 8e3d
00000280: a92d 25be b7f2 103e 7ccf 683d e1be b8bd
00000290: 64a5 f2bd 303d 81bd 0e90 61bc 1f87 34be
000002a0: 2527 b0bd d2c1 953d 54f4 983d da00 48be
000002b0: b9c3 67be c5f0 dd3d 6e81 c7bd 3d72 2cbe
000002c0: cbb0 d6bd 933f 243e ebc2 4fbd 9d47 0d3e
000002d0: d61a a9bd df4f d53d 0c2e 8fbd 4fad 91bd
000002e0: f01a 8abe c691 43be a19f 6bbe d2fb ad3d
000002f0: bc33 203e ecbf c93b dfc3 dcbd 3671 743b
00000300: 3c17 a6bd 7768 19bd 56b4 f63d 554e 55bd
00000310: 3a75 0ebe 4e9a 29be d6e4 10be b5fb 5d3e
-0.025278145 -0.14367107 -0.15094502 -0.33181816 -0.09796128 0.060304474 0.21543789 -0.024836957
0.10925622 -0.15845431 0.0959327 -0.3717105 0.1607724 -0.15715119 0.17975947 0.07761043
0.12395406 0.14523743 -0.14483978 0.13851023 0.21316332 -0.09272027 0.18648744 0.060093477
0.029372064 -0.19140777 0.15289922 -0.14801858 0.17420867 -0.08584007 0.26232976 -0.04454709
0.059801422 0.12798975 0.11346588 0.13677661 0.049483445 -0.03412892 0.09741461 0.22272575
-0.010654314 0.11800185 -0.13328956 -0.22904976 -0.17314543 -0.06254657 0.010480133 0.028669909
0.09914917 -0.12938501 -0.123889916 -0.22393058 -0.024355868 0.033878975 -0.019122057 0.012782242
0.05889998 0.091064535 -0.022746487 -0.10294765 0.120112345 -0.17392625 0.16641387 -0.17585014
0.013635051 -0.22360615 -0.10204953 0.1465305 0.20834456 0.08483472 0.012526718 0.011294937
0.0017932343 0.071622 0.16392633 -0.050877593 -0.11929916 -0.036607157 0.05640902 0.23075071
0.057746686 -0.16563015 0.016033815 -0.2743767 -0.06769595 0.07061008 -0.078781955 -0.13827573
-0.09256823 0.13505702 -0.0906786 -0.12221966 -0.22411151 0.09247814 0.07275349 -0.06297714
0.06891183 -0.07506593 0.03712979 -0.06709797 0.04881149 0.061898217 -0.15650295 -0.076114304
-0.03256913 0.041119408 -0.12523386 -0.12059909 -0.015689328 0.13283308 -0.042083886 -0.13565682
0.059473693 0.061807405 0.10075036 0.101855144 0.023962656 -0.013811465 -0.10383524 0.25302365
-0.1931608 -0.004772028 0.026163092 -0.08371337 -0.092842884 -0.12145817 -0.13203992 -0.20801772
-0.04772951 0.12833889 0.044074617 -0.19449463 -0.025737042 0.044401396 -0.10352131 -0.028560713
-0.14128348 0.08670588 -0.063422754 0.090401165 -0.046612665 -0.08406745 -0.10604773 -0.010811112
-0.261589 -0.1938331 -0.07876802 0.05405305 0.068994075 0.031983208 -0.16536276 0.04780411
-0.11350775 -0.041307915 0.19238493 0.14454743 0.055444963 -0.19280547 -0.11171723 0.06939437
-0.16130699 0.14155088 0.056838498 -0.09020782 -0.11847952 -0.06310499 -0.0137672555 -0.1762967
-0.08601216 0.07312359 0.07468477 -0.19531575 -0.22633256 0.10836939 -0.09741484 -0.16840453
-0.10482939 0.16039877 -0.050722998 0.1379685 -0.08257072 0.10415625 -0.069912046 -0.07113134
-0.26973677 -0.19098577 -0.23010112 0.084952965 0.15644735 0.006156912 -0.10779547 0.0037298924
-0.081099 -0.03745314 0.12046115 -0.052076656 -0.13911906 -0.16562769 -0.14149794 0.2167805

StatefulPartitionedCall/sequential_2/conv2d_4/Conv2D_bias f4 [8]
00000000: 7dd5 de3a 0f94 9e3d dd31 b73d cc19 ce3c
00000010: 2c6d 073e dbcf 33bd 644c 1b3d 2766 a93d
0.001700088 0.07743084 0.089450575 0.025158785 0.1322524 -0.0438994 0.03791465 0.08271437

StatefulPartitionedCall/sequential_2/conv2d_5/Conv2D/ReadVariableOp f4 [16, 3, 3, 8]
00000000: 4ddf 7ebe 218f 563d 195c a53e 0fa0 80be
00000010: 045e eebd 1639 1abe 93cb a2bd c3fc aebd
00000020: 44c2 f2bc 8b03 3d3d 9b2d 373d e035 c13c
00000030: 0f95 ba3e 970e 14be 0100 98bd c54a de3d
00000040: 9d3d 513d 5d0c c3bd 4b8a 9dbd 99b6 5ebd
00000050: 23e0 3bbe b13b 263e 1663 823d aed2 963d
00000060: b2e6 d13c 55c2 3e3e c4c6 7f3e ee1d 5d3d
00000070: 4751 9e3d 8644 e9bd 5fa3 3dbe 4b60 163e
00000080: fea7 73bd f0c2 9bbc 9218 c4bd 7e04 a7bd
00000090: 0641 1838 e6bc 28be 790c b9bc e259 01bd
000000a0: b090 0d3e f92b e7bd 6993 8b3e eeb1 a6be
000000b0: fe5a 1c3e 234a f93d 0ea5 083e f779 4abe
000000c0: f072 a4bd e163 b43e d5b0 013e 4fe3 f4bd
000000d0: d0a1 35be c8bf 0ebe c705 ddbe d8f5 7a3d
000000e0: 1167 13be b92b 2e3d d772 41be f26d e53d
000000f0: 7f0b f1bd ba49 453d b94c 44be 4265 fabc
00000100: d30b 91bc 66fe 563e c333 f83d 99e9 dabd
00000110: cbaa ca3d e657 653d 6a0e 36bd af81 11be
00000120: ca02 70be 0afc 4c3d 8765 4dbe 2a23 ff3d
00000130: 7847 8abd a62a 803c 74de 013f b583 a6bc
00000140: be5c 3ebe 9a80 aabd cf27 bc3d 1a90 74bd
00000150: a6ad 7cbd 7bae ffbc 874f 81bd 2777 c23d
00000160: a3ec 1d3e 2663 5ebd 0c99 febd c21f c63d
00000170: acd6 a43d f502 c93d 5c42 0b3e 466a 5ebe
00000180: 6cfa edbd b3a0 ae3d 5a22 0abe 60f2 963d
00000190: f1fb a63e 5830 b7bc ccb7 933c 34f0 09be
000001a0: dbd4 11be 3f75 5ebc 7428 bb3e f563 303d
000001b0: b656 b8bd 5fc4 1dbd 21c2 e93d 7bd9 273e
000001c0: eb03 25bd 2f3d 91bd 747e 7dbe 87d6 a7bd
000001d0: b7fd 18be 9a5f b8bd 2ceb 3bbe 60f7 24bc
000001e0: 87a2 9e3a 69e3 913e e9fa 413e f641 923d
000001f0: f878 d3bd b62f ae3d 0d29 e9bc 9693 633d
00000200: 1433 b9bd fce6 e03d 4954 db3d 470c 9e3d
00000210: c003 c63d 4e3d 023e e8c3 b4bd 7403 02bd
00000220: 1624 b9bb 88f7 123e 2a31 f6bd cb50 b0bc
00000230: 2d69 88bd fa62 7bbd 92e0 163e 4ce4 5c3e
00000240: 66cb 7a3b 28cf 8ebd 854a a83c 35a5 1f3e
00000250: ad43 443e eba8 80bd a713 0d3f 1e92 ebbd
00000260: b9b8 143d 9c90 503c d4fd c8bd bdcb 47bd
00000270: 1e61 15bd 615e 853d 8caa 573e 54e3 383e
00000280: 083a bbbd c8d9 8cbd cf31 95bd 820f 16bd
00000290: 4ec8 a9bd 7a8c e23b ac66 95be 541f 09be
000002a0: 52b5 6fbd 48fc ec3d 4fd8 853d f64f d1bd
000002b0: 405b 02be 0967 34bd fa62 99bd bf1c a13e
000002c0: b3b2 62be 7cc3 90bb bec3 993d af9d 1dbe
000002d0: f266 203e edbd 25bd 32c5 933e 5d8a 703d
000002e0: e494 4fbe 43fb b03a 6ca6 c43d b27c 663d
000002f0: 1474 17be 7206 a7bd ed53 d73c f87e 203d
00000300: b6ba f13c 7921 523e 60d6 1dbe e620 b8bc
00000310: 9d9f 85bb f6c6 9c3d 1fe0 0bbe 3337 66bd
00000320: fe6c 7d3c 8640 0f3e f055 153e a71e 5dbe
00000330: 8e7f 403b feb1 55bd 81e0 383d 745a a73b
00000340: f4ad 003d 8245 abbc 2c48 1d3d a913 b93d
00000350: 10d8 d33d b686 033e 8f6d 413e a1b2 f9bd
00000360: 7068 72be d1b3 04bd 869c 853c 1332 443c
00000370: 1338 51be deab 06ba 3b0d 753d 3fac a63d
00000380: e7ae ea3c 9c80 d5bb 02bb ee3e f8a0 29be
00000390: dd56 8fbd d1cb 75bd 60e0 00bc dd87 203e
000003a0: e2e9 dcbc 731e c8bd 841d ac3c c44e 7f3e
000003b0: d40d ed3e 5c40 05be 2f3d 7dbd 17e0 6f3e
000003c0: aa0e 23bd 8837 953e 84e5 c9bc 76bd edbd
000003d0: 1821 19be 1350 a1bc 3b93 6cbe 78d5 9f3d
000003e0: 132f 113d 95aa 94bd b3b8 87bd 1179 0c3d
000003f0: e955 aebd bd5a 43be ce24 54be 63fc 4c3e
-0.2488987 0.052382592 0.32296827 -0.25122115 -0.11639026 -0.15060839 -0.07948985 -0.08544304
-0.029633649 0.046145957 0.044721227 0.02358526 0.36441848 -0.1445869 -0.07421876 0.10854105
0.05108415 -0.095238425 -0.07692393 -0.054373357 -0.1834722 0.16233708 0.063665554 0.07364403
0.0256227 0.1862882 0.24978167 0.05398362 0.07730346 -0.11390023 -0.18519352 0.1468517
-0.05948638 -0.019013852 -0.09574999 -0.08155154 3.630018e-05 -0.16478309 -0.022588955 -0.03157986
0.13824725 -0.11287684 0.27260903 -0.32557625 0.15269086 0.121723436 0.13344213 -0.19773088
-0.08029735 0.35232452 0.12665112 -0.11957418 -0.17737508 -0.13940346 -0.4316847 0.06126961
-0.14394785 0.042522166 -0.18891464 0.11202611 -0.11769771 0.048166014 -0.19169892 -0.030565862
-0.017705834 0.20995483 0.12119248 -0.106890865 0.098958574 0.05599203 -0.04444734 -0.14209627
-0.23438564 0.05004505 -0.20058261 0.12457879 -0.06751913 0.015645336 0.5073006 -0.020326475
-0.18590066 -0.0832531 0.091872804 -0.05970774 -0.06168904 -0.031211128 -0.06313997 0.09495383
0.15422301 -0.054293774 -0.12431535 0.09674026 0.08048758 0.09815017 0.13599533 -0.21720228
-0.1162003 0.08526745 -0.13489667 0.07370448 0.3261409 -0.02236192 0.018031977 -0.13470536
-0.14241354 -0.013577758 0.365543 0.043064076 -0.09000914 -0.038517352 0.1141398 0.16391556
-0.04028694 -0.07091748 -0.2475527 -0.08195215 -0.14940535 -0.090026096 -0.1835143 -0.010068744
0.001210288 0.28493813 0.18943371 0.07141487 -0.10325807 0.08505194 -0.028461957 0.05556067
-0.090429455 0.10981557 0.107094355 0.077171855 0.09668684 0.12718698 -0.08826429 -0.031741574
-0.0056500537 0.14352238 -0.12021096 -0.0215229 -0.06660686 -0.06137369 0.14734104 0.21571463
0.0038268208 -0.06973106 0.020543346 0.15590365 0.19166441 -0.062822185 0.5510811 -0.11502479
0.036308978 0.01272979 -0.09814039 -0.048778284 -0.03646957 0.06512142 0.21061152 0.18055469
-0.09141928 -0.06877476 -0.07284891 -0.036635883 -0.08290158 0.006913719 -0.29179895 -0.13390857
-0.05852253 0.11571556 0.06535398 -0.102203295 -0.12730122 -0.044043574 -0.074895814 0.31467244
-0.22138481 -0.004417835 0.07508038 -0.15392183 0.1566427 -0.04046433 0.28861386 0.058725704
-0.20271641 0.0013502616 0.09602055 0.056271262 -0.14790374 -0.08155526 0.026285136 0.039183587
0.029507976 0.20520581 -0.15413809 -0.022476625 -0.0040778653 0.07655136 -0.13659714 -0.056204986
0.01546788 0.13989457 0.14583564 -0.21593724 0.0029372904 -0.0521717 0.04513598 0.0051072184
0.031415895 -0.020907167 0.038398907 0.09036953 0.10343945 0.12844357 0.1888945 -0.12192274
-0.23672652 -0.03239805 0.016309988 0.011974829 -0.20431547 -0.00051373045 0.05982707 0.08138322
0.028647853 -0.0065155756 0.4662705 -0.16565311 -0.0699899 -0.060008828 -0.007865995 0.15676828
-0.026966993 -0.09771433 0.021010168 0.2493239 0.46299613 -0.13012832 -0.061825927 0.23425327
-0.039808907 0.2914393 -0.024645574 -0.116084024 -0.1495403 -0.019691503 -0.23103039 0.07804388
0.035445284 -0.072590984 -0.066270255 0.034295145 -0.0851248 -0.19077583 -0.20717165 0.20018153

StatefulPartitionedCall/sequential_2/conv2d_5/Conv2D_bias f4 [16]
00000000: 3144 1bbc 84be f0bc 1385 2dbc 2e23 10bc
00000010: 901b 04bc e1f0 91bc c8aa 3ebc 6d13 2fbc
00000020: a66b c2bb 8fb5 abbb ac8f ecba 20f7 75bb
00000030: a116 03bc ade5 94bc 53fa 4c3b 7461 4f3b
-0.009476707 -0.02938772 -0.010590809 -0.00879745 -0.008063212 -0.017815055 -0.011637397 -0.010685784
-0.005933243 -0.0052401493 -0.0018048189 -0.0037531331 -0.008001001 -0.018175924 0.0031277135 0.003164378

StatefulPartitionedCall/sequential_2/conv2d_6/Conv2D/ReadVariableOp f4 [32, 3, 3, 16]
00000000: c5b8 4bbd 3b28 98be 211f 02be 8488 a5be
00000010: dfd4 77be e4ac 523e bdc3 75be 3410 76be
00000020: fce7 c2bd cfc9 e73d 3f71 a2bd e34a 6cbe
00000030: 37dc f4be b2cb 77be bdb4 48be ec79 a6be
00000040: b0ba a9be bd04 47bd 3527 4abe 993b 04be
00000050: f26b a8be 4ee8 a43d 7a9f 89bd 8221 92be
00000060: 213b 1cbe 2522 0a3e a559 0f3e 33ef 92be
00000070: df30 e0bd efcc 993b 974c 533d 24cd 60be
00000080: dde7 e1bd e2dd 21bd f36c cabc 22bd 3c3d
00000090: 4cfe 993d 27a8 d33c 3199 1d3d 1818 823d
000000a0: 4991 ebbb 7b61 413e 4566 543c 2fc4 063e
000000b0: 72a0 163d 250e 903d d217 a83a 6341 8c3d
000000c0: 9705 8ebe a13c b9bd 5427 bcbd 7c6f 86be
000000d0: b0e5 6dbe 8f97 1a3e 1cc4 cfbd 7a05 7fbe
000000e0: 650b 91be 2315 c53d 16f6 203e 905a 31be
000000f0: 815b 41be 9dd6 24be 2a30 a6be cb43 39be
00000100: 5c59 90be fa83 3b3e e2fe a23d 74b0 acbc
00000110: 8116 12be 2266 933d e1ba 3d3d 16ae 16b9
00000120: fd5e a2bd 131e 633e cec4 3d3e 7115 8fbe
00000130: 566c bc3d 1ccb 283e 9e66 45bd ac9c 613d
00000140: b012 92bd c73a 763e 9570 c43d 9c6f 343e
00000150: 569c 283e 1246 623d 8963 463d 87e5 293d
00000160: b90f 023e 9da8 153e d878 623d b2db ed3c
00000170: 5719 013e 833c e23d 39d2 7ebd d782 4b3d
00000180: 0394 3abe fafb 2a3e 3139 603d 458a 78bd
00000190: 7eee d7bd 3981 ae3d 3c3e 0aba d00c 4d3d
000001a0: a4bb 70bd adb8 1f3e da0e 483e 4a46 28bd
000001b0: 3390 3f3e 13d7 073c fde7 41bd fddc c03c
000001c0: 8494 253d c7ea 533e 4699 823e 4db0 1ebd
000001d0: f6dd ba3d 4930 533d f0f0 f13d cd19 163e
000001e0: 1b0a 28bd 1f5d 2c3e 6b2e 8a3d 6030 d9bd
000001f0: dd70 61bb 8877 4c3e dfe6 ba3c e767 74bc
00000200: 8982 2e3c 8787 b63d 633e 213d b399 063e
00000210: 7941 533d 8f4f 4bbd f5d5 933d 0760 863d
00000220: dc0a 633d 9f89 323d 363a f9bd 6c07 16bc
00000230: 8e44 84bd 9fea 06be be16 93bb 9248 7bbd
00000240: 759a 4ebc fbdd 813e 8221 013d f667 783e
00000250: 9798 503d 6f2c 643e b0e9 223e b7e2 013e
00000260: 4ce0 523e 861b e53d 9df9 513e dad4 073e
00000270: c782 863e e359 cd3d 1883 7d3e 3da6 273e
00000280: 7226 6d3e 81be 3d3e 0d3b 4c3e fd3d 4d3e
00000290: 4219 123e 4fa2 ee3d 492f 4a3e ba70 113e
000002a0: 2ad2 493e 3d71 f7bc a53b 233d 3bc8 363e
000002b0: d921 183e 10e1 133d 0a6b d23c 72c7 ea3d
000002c0: 957b 9a3c 5519 d9bd f3fb b6bb b7cb b0bd
000002d0: bccc ae3d 22fa 133d bb28 ac3c 125d e43c
000002e0: 9a4f f73d 89da 813c 28c0 efbd 87b4 8f3d
000002f0: 3a49 dd3d 385c ba3d f0a5 313d d9f9 abbd
00000300: 557a 2c3d 621e 733d 820b 8e3d be77 ce3d
00000310: 3921 003e b265 25be c03a a03d e6c9 923d
00000320: 7f5d 443e 3e57 6fbd a6a6 873d cb96 adbd
00000330: 25a8 4c3a 0612 f63d 7f12 11bd 911d a73c
00000340: 5ba8 7f3e c20c 6fbb e214 e7bd 35e7 be3d
00000350: 940b a1bc 05b9 a33d a6b4 8ebd a2bd 47bd
00000360: 7475 213e ee6a efbc 8333 b43c ca86 293e
00000370: dcd3 c33d 4d4a 9d3d a0b9 4f3d 2348 74be
00000380: 3a53 353d ab20 28bd 18cb 903d e93d 7fbd
00000390: b96e b5bc 333c 0e3e 8634 b6bc 0d19 b0bc
000003a0: 9823 6e3c ecbe f93d 3215 253b deba c5bd
000003b0: 12c0 82bc b6d6 57bc a0ff 23bd 5186 81bd
000003c0: 62c2 07be 4381 07be 18c5 50b8 6389 87bb
000003d0: 2752 b8ba d301 07bf 822c 353c 7ae8 1cbc
000003e0: 16c0 903d 57d4 9dbe edbd b9be c971 c3bd
000003f0: 2682 023d a9f1 25be 8ed8 0abe e306 b1bc
-0.049736757 -0.29718193 -0.12707187 -0.32330716 -0.24202298 0.20573765 -0.2400045 -0.24029619
-0.09516904 0.11317789 -0.07931756 -0.23075442 -0.4782426 -0.24198797 -0.19600196 -0.32514894
-0.33150244 -0.048588503 -0.19741519 -0.1291336 -0.32894856 0.08052121 -0.06719871 -0.2854119
-0.15256931 0.13489588 0.1399904 -0.2869812 -0.109468214 0.0046936194 0.051586714 -0.21953255
-0.110305525 -0.039518245 -0.024710154 0.04607881 0.075192064 0.025837017 0.038476173 0.06352252
-0.00718895 0.18884842 0.012963836 0.13160776 0.036774106 0.07033948 0.0012824482 0.06848409
-0.2773864 -0.09044767 -0.09187189 -0.2625693 -0.2323215 0.15096878 -0.10144827 -0.24904433
-0.28329006 0.09623172 0.15718874 -0.17319703 -0.18882562 -0.16097493 -0.3245862 -0.18092267
-0.28193176 0.18312064 0.07958771 -0.021080233 -0.14266397 0.07197215 0.0463208 -0.00014369967
-0.07928274 0.22179441 0.18532106 -0.27946046 0.09200351 0.1648373 -0.048193567 0.055081055
-0.071324706 0.2404586 0.09591786 0.176207 0.16465887 0.055242606 0.048434768 0.04147866
0.1270131 0.14615102 0.055291027 0.029035423 0.12607323 0.11046698 -0.062212203 0.049685325
-0.18220524 0.16697684 0.054742042 -0.06067874 -0.10543536 0.08520741 -0.0005273556 0.050061047
-0.058772698 0.15597792 0.19536915 -0.041082658 0.18707351 0.008291024 -0.047340382 0.023542875
0.04042484 0.20695029 0.25507563 -0.038742352 0.09124367 0.05155972 0.11813533 0.1465828
-0.041025262 0.16832398 0.06747135 -0.1060493 -0.0034399547 0.19967473 0.022815166 -0.01491735
0.010651239 0.089125685 0.039366137 0.13144569 0.05157611 -0.04963642 0.072185434 0.065612845
0.05543028 0.043588277 -0.12169306 -0.009157043 -0.06458388 -0.13175438 -0.004488795 -0.061348505
-0.012610068 0.2536467 0.031526096 0.24258408 0.05092677 0.22282575 0.15909457 0.12684141
0.20593375 0.1118689 0.20505376 0.1326479 0.2627165 0.1002691 0.2475704 0.16372009
0.23159197 0.18529703 0.19944401 0.20043178 0.14267448 0.11652052 0.197446 0.14203158
0.19709077 -0.030205363 0.039851803 0.1784982 0.14856662 0.03610331 0.025685806 0.114638224
0.018857757 -0.10600535 -0.005584234 -0.086326055 0.08535144 0.036127217 0.021015516 0.02787641
0.1207573 0.015851276 -0.11706573 0.07016855 0.108049825 0.090996206 0.04337114 -0.08397264
0.042108852 0.059355147 0.06935789 0.10081433 0.12512673 -0.16152075 0.07823706 0.07167415
0.19176291 -0.05843281 0.066235825 -0.08476027 0.0007807038 0.120151564 -0.03541803 0.02039984
0.24966566 -0.003647611 -0.1128328 0.09321443 -0.019658841 0.07994274 -0.0696805 -0.048764832
0.15767461 -0.029225793 0.021997219 0.16555324 0.09561893 0.076801874 0.050714135 -0.23855643
0.044268824 -0.04104678 0.07069987 -0.0623149 -0.022147523 0.13890152 -0.022241842 -0.02149632
0.014534853 0.121946186 0.0025189635 -0.09654783 -0.015960727 -0.01317375 -0.040038705 -0.06324447
-0.13257745 -0.13232903 -4.9774622e-05 -0.004136251 -0.0014062569 -0.5273716 0.011057975 -0.009576911
0.070678875 -0.30826065 -0.36277714 -0.09543187 0.0318624 -0.16205467 -0.13559172 -0.02160973

StatefulPartitionedCall/sequential_2/conv2d_6/Conv2D_bias f4 [32]
00000000: de2b ecbd 5bcc 11ba 87d6 c9bd 6e13 1dbb
00000010: 3e07 60bc dd47 12be f530 0abd e6d7 a3bc
00000020: f6f0 46bd efeb 64bd f8d7 afbc bf2e 0dbe
00000030: 1c50 dbbd ab55 db3a 44d9 d7bc 8e9a 25bd
00000040: 8ad4 e4bd 5997 c03b 90bf 0dbb 0fe5 37bd
00000050: 972e b7bd 41f4 f53b 991b c2ba 34b2 ec3a
00000060: f21e 19bc f6b3 9ebb e86c 25bd 1037 15bb
00000070: e45b 98bd 1413 fcbd 52df e8bc 9a9c 1cbd
-0.115318045 -0.00055617624 -0.09855371 -0.002396788 -0.013673602 -0.14285226 -0.033738095 -0.02000041
-0.048569642 -0.055889066 -0.021465287 -0.13787363 -0.10708639 0.0016733905 -0.026348718 -0.040430598
-0.11173351 0.005877417 -0.0021629073 -0.04489618 -0.08944433 0.007505924 -0.001480925 0.001805848
-0.009345757 -0.0048432304 -0.040387064 -0.0022768416 -0.07439402 -0.12308326 -0.0284268 -0.038235284

StatefulPartitionedCall/sequential_2/conv2d_7/Conv2D/ReadVariableOp f4 [64, 3, 3, 32]
00000000: 1d33 8dbe 5fcd 34bd 6610 15be e17d 333e
00000010: 573d 9ebc f99e 96bd b8e4 6fbd 0a3d aabd
00000020: 3510 03bd d2a9 18bd f69c 16be 1ac5 81bd
00000030: f4b8 0bbd 4280 a4bd 805d b4bd 4b1c 78bd
00000040: 9b84 c6bd 4843 793c bc51 debc 56aa 28be
00000050: a8a3 2fbe 33e9 4bbd 9efe 2a3d 2bc6 94bc
00000060: ae40 cdbd 7a1a 873c 6cd9 bfbd bd27 ebbd
00000070: 5367 d2bd 546f 36bd 38b1 103d 147d 553c
00000080: 3025 4ebe 9ac4 b23d e6a8 473c ca35 2e3c
00000090: 087c 053d edb1 1e3c bb5c 08be 2073 523d
000000a0: 81ba 3abd 401d 44bd 90ee 0d3c 9ab6 b2bd
000000b0: 33f7 53bc 022a e0bd 3bda b3bd f4c3 063e
000000c0: 6102 85bc d5ef d0bd d890 61bd 9cb9 60be
000000d0: 0239 1d3c 954f 4fbd 5cab 9dbc cb5a 49be
000000e0: 9812 a4bc 4ef9 c3bb aa88 3fbc 802e b6bd
000000f0: 9e94 e6bc 10d9 003c 2f2a 7cbc b3e7 62bd
00000100: b8b3 013e 5578 0f3e d402 2d3d a6c2 313e
00000110: 1607 223d b313 9cbc 94f6 69bd 0a04 0c3c
00000120: 85bc 3f3e 087d e73d 6c20 e33d 485f 7f3d
00000130: f672 dd3c 1e5f 9a3d 1148 cb3d 2ea9 3c3d
00000140: 7095 f43d d5b0 1a3e 5caa ccbd 4388 b4bc
00000150: 48b1 f13d ac46 2b3b 9447 033c a8a6 d6bd
00000160: 618a 4b3e b9d4 173e 73e0 8ebd 5a2b d63b
00000170: 8bcd 0cbd c683 b33c 4fd5 d63d d729 783c
00000180: c37f 6bbd fe20 39be 8e1a 7dbe 08c1 0cbe
00000190: 16c7 2d3c 735b 1abe aa34 c43c e899 bebd
000001a0: b118 17be 0d2a 0bbe 9a97 0cbe b10c 18be
000001b0: 43c1 94bd 8e77 c7bd beac 0abe a180 08be
000001c0: 0cd2 32bd 93a2 8bbe 1757 22bd ecfe 00bd
000001d0: d6cd a4be 999e 123c 3d72 71bd 2220 cfbd
000001e0: 0b8d 25be f597 55be 3170 babc b76d 9d3d
000001f0: 4c1f 9bbd f64f 2bbe 4e68 0dbe f77e 1f3c
00000200: a57f d6bc 8dc7 15be ec87 31be aa82 1fbe
00000210: 4700 56be 8d39 27be 8000 f9bb c467 03be
00000220: 655d 81be 689b 22be 05b2 a5bd 2cc4 d3bd
00000230: 78da 28be 8c73 173e 6ef5 f7bb 18ca 17be
00000240: 222a bbbd 3be2 90bd 3f4a e3bd 20d3 973d
00000250: 7fd4 9f3a eef2 66be f457 a5bd 76d4 423d
00000260: 5db3 f2bd 8d7a f4bd 4c72 09bd ffe4 1fbc
00000270: 9663 3fbe b9d6 44be 30fa 20be ef5c 9abd
00000280: 4cae c9bc 676a 063c 4f0d 713d 3c02 6a3d
00000290: c460 833b 3a17 bebd 1fc5 363e caf6 dabd
000002a0: 2337 e33d 26c6 6d3d b698 003e 105e 183e
000002b0: d548 edbd 5ed5 69be ea20 b6bc 0c75 e2bc
000002c0: 8795 00be 5d89 033e 79b3 46be f6dc 8f3c
000002d0: b7b2 c63b 9f56 0d3e f29a 06be 2824 033e
000002e0: b514 073d a2b8 703d f62f 10bd 6ec5 d83d
000002f0: cce9 3ebd 83fc 423d 8b3d eabc cc36 c8bc
00000300: 0d46 633a 2480 12be 7c46 a43c caa6 853d
00000310: 1c49 233d 8d15 ab3c 7ab8 05bd 80bf 1e3c
00000320: e807 793d b79f debc 289a b83d 5644 9abc
00000330: 9271 8b3d dce4 113e 0a35 5c3c d756 9fbd
00000340: 3395 723b 234b 9fbd 21d1 eabb 7797 1a3e
00000350: 84c3 243d 9353 fabd c5d2 c2bb d00f 2d3e
00000360: 8484 62bd 2924 8f3a 7023 e83d d0bc 0a3e
00000370: 07f4 75bd ce11 e43c 06e8 d63d 6013 aebd
00000380: 5727 193e 074d 6abe df8c c9bd 7388 85be
00000390: 7c9f d7bd 06b7 92b9 d7c3 91bd 0f03 77be
000003a0: cb3f 33bd da2d 5abe 4192 97bd c873 febd
000003b0: fceb 23bd 92ae 163d cda6 5b3d 9195 0dbe
000003c0: d3d2 153e 08ae 23be f0f4 aebc 1ad8 323e
000003d0: c854 00be 0bda 80be 5240 9abc 803c 2f3e
000003e0: 4b90 2dbe 9c2f 55be 8939 97bd f577 5d3d
000003f0: 193d 04be e7ed fabd bf35 69bd 6662 18be
-0.2757806 -0.04414117 -0.14557037 0.17528488 -0.019316358 -0.073545404 -0.058567733 -0.083124235
-0.031997878 -0.03727133 -0.14708313 -0.06336422 -0.034111932 -0.08032276 -0.08806896 -0.060573857
-0.09693261 0.015213795 -0.027138583 -0.16471228 -0.17152274 -0.049782943 0.041746728 -0.0181609
-0.10022102 0.016492117 -0.09367642 -0.11482189 -0.10273614 -0.044539765 0.03532526 0.013030309
-0.20131373 0.08728905 0.012186265 0.0106329415 0.03258899 0.0096859755 -0.13316624 0.051379323
-0.04558802 -0.047879457 0.008662835 -0.08726235 -0.012937355 -0.10945512 -0.087818585 0.13160688
-0.016236486 -0.10201994 -0.055069774 -0.21945804 0.009596111 -0.050613005 -0.01924675 -0.19663541
-0.020028397 -0.005980647 -0.011690298 -0.08895588 -0.028147038 0.007864252 -0.015390917 -0.055396747
0.12666214 0.14010747 0.042239025 0.17359409 0.03955754 -0.019052362 -0.05711992 0.008545885
0.18724258 0.11303145 0.11090168 0.062346727 0.027032357 0.075376734 0.09925855 0.04605978
0.119425654 0.15106519 -0.09993431 -0.02203763 0.11801392 0.0026134653 0.008012671 -0.10481006
0.19877006 0.14827241 -0.06976404 0.0065359296 -0.03437571 0.02191342 0.10489904 0.015146694
-0.05749489 -0.18078992 -0.24717161 -0.1374551 0.010606548 -0.15073948 0.023950893 -0.09306699
-0.14755513 -0.1359026 -0.13729706 -0.14848591 -0.07263424 -0.097396 -0.13542458 -0.13330318
-0.043657348 -0.27272472 -0.039633837 -0.031493112 -0.3218829 0.008948945 -0.058946837 -0.10113551
-0.16167085 -0.20858748 -0.022758575 0.07686942 -0.07574329 -0.16729721 -0.1380932 0.009734861
-0.026183913 -0.14626904 -0.17337006 -0.15577188 -0.20898543 -0.16330548 -0.0075989366 -0.12832552
-0.25266567 -0.15879595 -0.08090595 -0.10340151 -0.16489589 0.14790171 -0.0075670993 -0.14823186
-0.091388956 -0.070744 -0.11098146 0.07413316 0.0012194066 -0.22553608 -0.08073416 0.0475659
-0.11850617 -0.11937437 -0.033556268 -0.009759187 -0.18690333 -0.19222535 -0.15720439 -0.07537257
-0.024619244 0.008204079 0.058850583 0.057131037 0.004009338 -0.09281774 0.17848633 -0.106916025
0.11094501 0.058050297 0.12558255 0.14879632 -0.11586157 -0.228353 -0.022232492 -0.027643703
-0.1255704 0.12845369 -0.19404401 0.017561417 0.006063785 0.13802575 -0.13145044 0.12806761
0.032978732 0.05876983 -0.03520199 0.10584532 -0.046609685 0.047604095 -0.0285938 -0.024440192
0.0008669801 -0.14306694 0.02005314 0.06525953 0.039864644 0.0208843 -0.032646634 0.009689212
0.060798556 -0.027175767 0.09013778 -0.018831413 0.06808771 0.14247459 0.01344038 -0.07780235
0.00370152 -0.07778003 -0.0071660434 0.15096842 0.04022552 -0.12222972 -0.005945536 0.16900563
-0.055302158 0.0010920811 0.11334884 0.13548589 -0.060047176 0.027840521 0.10493474 -0.08499789
0.14956413 -0.22880946 -0.09841322 -0.26080665 -0.10528466 -0.00027983653 -0.071174316 -0.2412226
-0.04376201 -0.21306553 -0.074009426 -0.12424427 -0.040019974 0.036787577 0.05362587 -0.13826586
0.14631204 -0.15984356 -0.02135703 0.17465249 -0.12532341 -0.25166354 -0.018829498 0.17112923
-0.16949575 -0.20818943 -0.07384021 0.054069478 -0.12913932 -0.122524075 -0.056936022 -0.14881286

StatefulPartitionedCall/sequential_2/conv2d_7/Conv2D_bias f4 [64]
00000000: 5364 2fbd 1eb8 07be 93b6 70bd a05c 95bd
00000010: 754a e2bd a0df 61bd f76f 89bd 35db 8fbd
00000020: cd4d 93bc 770b d8bc 5d65 b2bd 5f90 12bb
00000030: 747b 32bd d817 5b3c 9f8c 5abe 2c8f 07be
00000040: 57a9 4f3c e29e 6bbd 87ef 5ebd 974a a1bd
00000050: 1f7f c5ba adb6 7cbd 226f 04be d3be c0bd
00000060: dd85 f0bd 4518 1abe 8a2e fbbd b7e4 70bd
00000070: e04b 0ebd 173f 4bbd d699 38be 45c1 053c
00000080: 5971 7abd 141a 66bd cad7 efbc 1175 6abd
00000090: 1213 4ebd 9e67 63bd e568 98bd d719 01bd
000000a0: 61f2 9bbd 0dc6 db3d 2863 e7bd 784d a0bd
000000b0: 62e5 10bd 77ea dcbd 57af a43d 2080 25bd
000000c0: 865f 1fbe 44b9 60bd d94d 11be 8d23 65bd
000000d0: b675 8fbd 5054 bdbd 4c07 323c 6a73 d6bb
000000e0: dc7f 80bd 525f 5abd d126 dfbd ed2b 26be
000000f0: 027b 39bd ef80 2cbd 6c50 dbbc 47ba ac3c
-0.042820286 -0.13253829 -0.058767866 -0.072930574 -0.11049358 -0.055144906 -0.06710809 -0.07024232
-0.017981434 -0.026372654 -0.0871074 -0.0022363884 -0.043574765 0.013372384 -0.21342705 -0.1323821
0.012674651 -0.05752457 -0.05442765 -0.07875555 -0.0015067792 -0.06169765 -0.12933019 -0.09411397
-0.117442824 -0.1504832 -0.12264736 -0.05881187 -0.03474033 -0.049620714 -0.18027434 0.008163755
-0.061143253 -0.056177214 -0.0292777 -0.05724055 -0.050311156 -0.05551874 -0.07441882 -0.031518783
-0.076145895 0.107311346 -0.112982094 -0.07827276 -0.035375006 -0.10786908 0.08041256 -0.040405393
-0.15563783 -0.054864183 -0.14189853 -0.055942107 -0.070048735 -0.09244597 0.0108659975 -0.00654452
-0.06274387 -0.05331356 -0.108960755 -0.16227694 -0.045283325 -0.04211515 -0.026771747 0.021084918

StatefulPartitionedCall/sequential_2/dense_3/MatMul/ReadVariableOp/transpose f4 [128, 1024]
00000000: ae48 d2bc 5e7c 083d 7849 373c 1a07 9fbc
00000010: 26ee 333d b5d4 043d d950 4e3d b233 93bc
00000020: 956c 0e3d cc92 f13b 504e bfbc 36f2 7bbd
00000030: 7af4 76bc 6dbb e53c 13d9 9e3b 882f dabc
00000040: 1af8 fbbc 9d41 e03c 8449 edbc 18d6 58bd
00000050: 3c5d 36bd 28cd b6ba aa37 03bd 1d40 073d
00000060: 4fb3 063d f8e2 7c3d 5b3b 0abd 2924 343d
00000070: 565a d1bc 3bb7 9bbd 8f15 5fbc 7e2d a0bc
00000080: e323 1abd a09f f6bc f3bf 813b 2fc9 083c
00000090: 739c 2bbd 48ef 3d3c a5c9 14bd bffd fb3b
000000a0: f183 5d3b 0654 9bbd dfd3 1d3d 1df6 c43c
000000b0: cb94 463d 51d2 9a3c 7b28 27bd fe2a 7a3d
000000c0: e14f ab3b 4f23 083d dfb2 35bb 6203 603c
000000d0: 5b84 91bd 96a6 07bd 0f23 20bd b745 5abd
000000e0: 1421 c83c 283d 94bb 6894 95bb c9f9 9dbd
000000f0: a5f4 063d 9955 19bc b464 20bc ae3d eb3c
00000100: 3b4a 4b3d f5f3 963a 16ea e1bb 5547 0fbd
00000110: 1fab e63c 5f08 1b3c 78a7 0d3c 9800 a53b
00000120: e5f1 1c3d 2d66 aabc 634b 5abd 3e52 1c3d
00000130: c36f 04bd ae3b c6bc 98a9 40bc 4824 833b
00000140: 4a17 68bd a5d2 3cbd 8ee7 fb3c 6fa8 9fbd
00000150: 62b7 e13c 5520 8b3d fad9 72bd 3b44 96bd
00000160: 3b02 20bc 78ae 493d dbae 143d 92cc 13bd
00000170: 0412 b63c c2da a83c def4 e6bc e63f 60bd
00000180: 3ff1 98bd 4608 44bc ff99 6b3d c26c 293d
00000190: 52c0 523d a094 033d 8830 83bd 779c 043d
000001a0: e36b 07bc 3d91 8fbd ad12 49bd 944a b4bd
000001b0: 52b9 2dbc 2675 023d a469 9fba 8dad e43c
000001c0: be0f 1a3c 3db9 2fbd 1702 91bd edeb 0e3c
000001d0: 265f c6bd fe68 e1bc 5043 603d 25b4 7fbd
000001e0: 5ef5 833d 7759 14bb 6e94 6fbd c911 4d3d
000001f0: 54b7 6cbc cb14 e63c cc84 b93c 1979 95bd
00000200: 3fbd 5abd fdd7 7cbb 6c7b 01bd 485f 6fbc
00000210: 06d9 7fbc 8a42 71bd 92ba 76bd 2faf 3fbd
00000220: 2069 99bc 6148 913d 11c9 18bd 7881 5fbd
00000230: de63 12bd 361c 82bc 6d7e e0bc 2f0b 1d3c
00000240: 0d95 a73b 9a3b e7bd 506c eabc 3cfd 84bd
00000250: 613e 633d f377 b63c 6b3a d53c 0597 ad3c
00000260: 32a6 b7bc 4c61 47bd 3a80 64bd 58b7 2f3c
00000270: 1dd2 24bd 836b 03bd cd4c cc3c 7a40 65bd
00000280: d5c6 c93d e0dd 263d b9a8 8e3d dd79 803d
00000290: d712 06bd 0a11 bd3c 4d92 6ebb 91c2 65bd
000002a0: c38b 1cbc fa1e 613c 0543 583d 11d0 07bd
000002b0: e3ae 94bc 8efe 9bbc f58c 9b3c 18ed 8fbb
000002c0: 31c5 c1bc c905 393d 9fa2 89bd 3b9c d73c
000002d0: bfb6 99bd f5ae ac3b ca17 90bd 29bc 15bd
000002e0: 7386 273a 5d9a 3dbc df7b 25bd b3ee c5bc
000002f0: f4b3 e03c 8f45 08bd d8b2 343d 2c57 8b3c
00000300: 54be 1f3d 8682 3d3c ea14 62bd 1601 8bbd
00000310: 9183 073d 53c9 123d 4c4f 63bd 93a0 34bd
00000320: c904 273b c78a 8abc 80d4 9e3d 0a3d 313d
00000330: 451c 9dbd f027 64bd 42d6 8dbd 32f5 9bbb
00000340: 7e0b 8d3c d4b3 45bd 03c6 2f3d ab52 74bd
00000350: 02b9 f63c 3c0c e3bc b8b5 f53c a400 253d
00000360: 3ee6 0e3c 113b 0bbd a109 61bd a5dd c33c
00000370: cfbc 123d da02 73bd 8bc8 1dbd 0d08 adbd
00000380: ed62 7c3c 2855 173d a211 5fbd 75fe cf3c
00000390: 5444 813d 184e 4c3d e8b4 233d 7e76 86bd
000003a0: 0e66 77bc 4193 2b3d 742a 173d f803 343c
000003b0: 166a 17bd c3ba fc3c aa9a 0d3d ea96 76bd
000003c0: 4ba2 8c3d 7ddb 5bbd 2a01 0b3c 2259 00bd
000003d0: daf8 ddbb 77f0 0a3d 5dde 05bd 9251 223d
000003e0: 2763 203d daf0 093d 8b10 823c 4d44 f73b
000003f0: c968 4f3d e401 833d 7a77 f2bc 2e37 ca3c
-0.025669422 0.03332173 0.01118695 -0.019412566 0.043928288 0.032429416 0.05037007 -0.017968986
0.03477152 0.007372236 -0.023352772 -0.061510287 -0.015072936 0.028043473 0.0048476546 -0.026633993
-0.030757952 0.027375037 -0.028965719 -0.05293855 -0.04452251 -0.0013946639 -0.032035507 0.033020128
0.032885846 0.06173989 -0.033748012 0.043979798 -0.02555577 -0.07603308 -0.01361598 -0.019552942
-0.03763188 -0.030105412 0.0039596497 0.008348747 -0.04189725 0.011592694 -0.036325116 0.007690161
0.0033800567 -0.075843856 0.038532134 0.024043137 0.048481744 0.018899115 -0.04081009 0.061076157
0.005228028 0.033236798 -0.0027725024 0.0136726815 -0.07105323 -0.033117853 -0.039095934 -0.05328914
0.024429835 -0.004523892 -0.0045648105 -0.07713658 0.032948155 -0.009358787 -0.0097896345 0.028715935
0.04963134 0.0011516797 -0.0068943603 -0.034980137 0.028157769 0.009462445 0.008645885 0.005035471
0.038316626 -0.020800674 -0.05329455 0.03816437 -0.032333147 -0.02419838 -0.011759184 0.004002128
-0.056662835 -0.046099324 0.030750062 -0.07795798 0.027553264 0.06793276 -0.05928991 -0.07337233
-0.009766157 0.049238652 0.036299568 -0.036083765 0.022225387 0.020612124 -0.028192934 -0.05474844
-0.07467889 -0.011964863 0.05751991 0.041363485 0.051452942 0.03212416 -0.06405741 0.03237578
-0.008265468 -0.07010124 -0.049090076 -0.08803287 -0.010603266 0.031850003 -0.0012162221 0.027914787
0.009403167 -0.042901266 -0.07080477 0.008723241 -0.09686117 -0.027515884 0.054751694 -0.06242766
0.064432845 -0.0022636333 -0.058491163 0.05006579 -0.014448006 0.028086087 0.02264633 -0.07298488
-0.053403135 -0.0038580887 -0.031611845 -0.014610119 -0.015615707 -0.058901347 -0.06023652 -0.046797927
-0.018726885 0.07093883 -0.037301127 -0.05456683 -0.035739772 -0.015882593 -0.027404035 0.009585186
0.005114204 -0.11290665 -0.0286161 -0.06493613 0.05547941 0.022273993 0.026028832 0.021190176
-0.022418115 -0.048676774 -0.05578635 0.010724865 -0.040239442 -0.032084953 0.024938965 -0.055969693
0.09852377 0.04073894 0.06965775 0.062732436 -0.03273281 0.023079414 -0.003640312 -0.056093756
-0.009554806 0.013740296 0.05279829 -0.033157412 -0.018149799 -0.01904228 0.018988112 -0.0043922774
-0.023653599 0.045171533 -0.06720471 0.026319614 -0.07505559 0.00526988 -0.070357874 -0.036556397
0.0006390579 -0.011572448 -0.040401336 -0.024161672 0.027429558 -0.03326946 0.04411587 0.01700934
0.03899987 0.011566764 -0.055195726 -0.067873165 0.033084456 0.03583653 -0.055495545 -0.044098448
0.002548503 -0.016911877 0.07755375 0.043271102 -0.076714076 -0.05570215 -0.06925632 -0.004759454
0.017217394 -0.0482672 0.042913448 -0.05964915 0.030117515 -0.027715795 0.029993877 0.040283814
0.008721886 -0.033991877 -0.054940823 0.0239094 0.035824593 -0.05932889 -0.03852133 -0.08448801
0.015404445 0.036946446 -0.054460175 0.02538989 0.06311861 0.049879164 0.039967448 -0.06565569
-0.015100015 0.04188848 0.03690572 0.010987274 -0.036966406 0.030850774 0.034571327 -0.060202517
0.068668924 -0.053676117 0.008484164 -0.031335004 -0.00677405 0.03392073 -0.032682765 0.039628573
0.03915706 0.03367696 0.015877029 0.007545984 0.05063704 0.06396845 -0.029597986 0.024684515

StatefulPartitionedCall/sequential_2/dense_3/MatMul_bias f4 [128]
00000000: 79cd 5abc 9627 8d3d 0048 d83c ffb2 bebc
00000010: 81ab 27bc dfd0 cabc 35f4 f53c 4765 443d
00000020: 3b58 02bc 73b9 79bc f340 07bd d082 813d
00000030: b6ce 35bc ad54 24bd bd2e cebc dfcb f6bb
00000040: 5882 06bc 0af1 07bc ab97 36bc 260d fcbc
00000050: d145 ce3c 6f43 933b c176 2fbc 5c5c 6b3d
00000060: 0fb7 303d 79b4 4dbd 0a07 923d 047b a1bd
00000070: d364 6fbc 0824 c03d d359 803d 2772 85bd
00000080: 968e 84bc c9b8 b1bb 12f4 35bd 5357 c7bc
00000090: dcb6 103d b7fd 093c 35f4 80bd 2f44 46bc
000000a0: eb9b e9bc e919 58bd 3d63 05bc ec0b b6bc
000000b0: 453d 40bd 01ce 53bc 05d6 34bc 2c70 6d3a
000000c0: e3fc f2bc 35aa 01bc c2ce 64bc d8ad 8ebc
000000d0: 9328 07bc 4588 59bb 96d1 51bc e20b 64bd
000000e0: c98d 21bc 76f3 0fbc 29ee 80bc 7713 56bc
000000f0: 4705 42bc fa6c 01bc 7177 27bc e69c a6bb
00000100: 202a 773b 4554 b03a 9aa9 dabb a8e1 023d
00000110: 1db3 433c 985f 37bd 06fc 2b3b 67b8 17bc
00000120: 76de ebbc 953a e4bb 4d1b f7bc 7294 ce3b
00000130: ae99 92bd 2e53 9ebc 512b 213c 0b79 5dbc
00000140: f169 963d 1186 46bd cb06 8c3b e1d6 263d
00000150: 767d b03b a696 04bd 86e0 0dbd aea5 433d
00000160: d15d 0a3d d50b 91bc 30a3 00bc 6be8 e6bc
00000170: 9ffc a0bc 3e21 adbc 2d45 9bbb 55e1 98bc
00000180: d078 1ebd 6c3c 2abc 2248 f8bb 0f4c b03d
00000190: a878 e3bb 4a7f c0bc a0f0 93bc b51a ccbc
000001a0: 2e9d b7bc d8e4 17bc 2532 9a3d 1d07 713c
000001b0: fb6c 663c e108 e33c 8b24 93bc cdb8 64bc
000001c0: 9014 ffbb fd5d 84bd e20e 633c 4ab2 b8bc
000001d0: 7656 f4bb 1a40 0abc 33a3 8d3d a09d e6bb
000001e0: c012 b53c 5847 01bd 6fcd 5d3d 10e5 513d
000001f0: 3991 23bc bad3 8f3a e5cc ffbb d87a 043d
-0.013354653 0.06892316 0.02640152 -0.023278711 -0.010233761 -0.0247578 0.030023674 0.047948148
-0.007955606 -0.015241968 -0.033020925 0.06323779 -0.011096647 -0.040119816 -0.02516877 -0.0075316275
-0.008209787 -0.008297214 -0.011144559 -0.030767988 0.025179775 0.0044941227 -0.0107094655 0.057461128
0.04314333 -0.05022094 0.07130249 -0.078847915 -0.014611441 0.093818724 0.062671326 -0.065159135
-0.016181272 -0.0054236394 -0.044422217 -0.024333632 0.03533064 0.008422307 -0.06296579 -0.012101217
-0.02851673 -0.052759085 -0.008141336 -0.022222482 -0.04693343 -0.012927533 -0.011037354 0.00090575474
-0.029661601 -0.007914116 -0.0139653105 -0.01741688 -0.00824942 -0.0033192795 -0.012806317 -0.055675395
-0.009860464 -0.008786073 -0.015738564 -0.013066164 -0.0118420785 -0.007899517 -0.010221348 -0.0050846217
0.0037714317 0.0013452849 -0.00667305 0.031953484 0.011944559 -0.0447689 0.0026242747 -0.009260274
-0.028792601 -0.0069649913 -0.030164385 0.006304317 -0.07158218 -0.019326773 0.009836988 -0.013517628
0.073444255 -0.0484677 0.0042732707 0.04073227 0.00538605 -0.032370232 -0.03463795 0.047765426
0.033780877 -0.017705837 -0.007851407 -0.028186997 -0.01965171 -0.021134015 -0.004738471 -0.018662134
-0.038689435 -0.010390382 -0.0075769583 0.08608257 -0.0069418736 -0.023498196 -0.018059075 -0.024915079
-0.022413816 -0.009270869 0.075290956 0.014711169 0.014064069 0.027714195 -0.017961761 -0.013960076
-0.0077844337 -0.06463239 0.013858529 -0.022545952 -0.007456596 -0.008438135 0.069158934 -0.0070378333
0.022103667 -0.03156218 0.054150995 0.05124384 -0.009983354 0.0010973134 -0.0078064078 0.032343715

StatefulPartitionedCall/sequential_2/dense_4/MatMul/ReadVariableOp/transpose f4 [64, 128]
00000000: cba6 04be 0a1a 173e 9110 f63d 483c b83d
00000010: b242 c63d cb5b 273e 7611 1ebe 5465 be3d
00000020: d1f7 c23d 88f8 b9bc 5e09 0d3e f828 42bd
00000030: 2efd d6bd 5392 033e 566d 9e3c 6d62 b7bd
00000040: 6136 6bbe 2342 ba3d e288 133e baf3 99bd
00000050: 6179 653e 4221 773d 291d 103e c02d b73d
00000060: c23c 8d3e e23a c6bc c732 cc3d 85c5 4ebe
00000070: bc77 233e ac7e 7a3d 9d9d 443d a865 17be
00000080: ece1 4dbe 8d75 043e 2220 b0bc dc43 b23c
00000090: 6d51 eebd cfde 29be 120b 773d fee1 f63c
000000a0: d2eb 5bbe 23ab f0bd 1af3 c6bd 08f9 1c3d
000000b0: 4f61 413d a2b5 eabb 5f68 cd3d d9c1 0bbe
000000c0: 0b2f e63d e5da 113c 5288 243e a80a fabd
000000d0: 3666 ab3d b8dd bdbe 3e24 be3d 3256 25be
000000e0: 582a a23c 8de0 c03d b413 963a 1f45 8ebd
000000f0: ef0a bbbc 0fdd 1cbe 4438 45bc 9239 a53d
00000100: 6ef9 83be 2c8a c1bd c72b 09be 1fd7 cfbd
00000110: ca99 86be ecad 9abe eea6 35be e236 00be
00000120: 2a5d 8fbb 3ce0 8cbd d0cc 1b3e c9b2 1bbe
00000130: cff4 643d 467d 273d 1d55 bd3d bda4 ba3d
00000140: c691 3d3e 9d2f 0fbe a475 073e 8a32 c63c
00000150: 4baf 07bd c339 243e f6ba b83d 00a0 503e
00000160: 536b 243e 4f9a ccbc bcce efbd e056 51be
00000170: acd6 123e 2685 85be a523 fabc 3b59 3c3c
00000180: cb6d d3bc 00a6 25bb 982d 0dbe d869 413e
00000190: aa92 d73d 81d8 0a3e 107a 983b aea0 fbbc
000001a0: 80a8 083e 212e fb3d d11e 10be 2b6c 033d
000001b0: 7622 67be f1c0 813e 495c 843c 1254 523d
000001c0: 4873 003d 5e99 a2bd 62c5 a8be 82b2 0e3e
000001d0: 3d70 40be 1617 1abd 3c86 663e 3750 3fbe
000001e0: 2fae 563c ec76 4abe 76fe bc3d 4cd5 ba3d
000001f0: 2e28 2e3e 4a17 9e39 e1e8 0fbe 74bf 753e
00000200: 42e5 293d f6c9 eb3d 7482 083c fb30 083d
00000210: c693 8b3d 552b 8f3d 396f 853d 0bf8 843d
00000220: 7ec2 a83d 6754 ac3d d95b 70bd 6a02 963d
00000230: a276 093e 3784 1d3e 44d4 3d3e 3d99 0dbe
00000240: ef75 173e fe24 c6bd 352e 32be 8c4d 7abd
00000250: 1d80 2bbc 4798 5bbe ae3a 6a3c 7585 5c3e
00000260: cd20 31be b09f 0abe a4a6 103e 5bab 413d
00000270: 01fd e7bd 1275 233e 2679 72bc 3b38 993d
00000280: 9acd 4dbd 22e9 b9ba 38a7 aabd 0a66 183d
00000290: 3047 243e 3713 ca3d b27a 41bd 53ce 0b3e
000002a0: abdf b23a bc47 cd3d e789 923d a144 103d
000002b0: 9bb3 81bd c65b f03d da35 bb3d 2c35 f0bd
000002c0: 7996 7dbd 4e1f ae3d 0e61 08bc dfb8 eb3c
000002d0: 266e bf3c 030c 2abe c843 b0bd 6991 413d
000002e0: 56d7 08be b08a 33bd c13e 9abd 577f 453d
000002f0: d4c1 f23d 6ffc 063e 3db4 fabc 1b21 5e3d
00000300: c722 da3d 8e28 e1bd df1c 00be 78ec 3abd
00000310: 4222 c0bd 6754 643c 0911 913c 01a9 8a3c
00000320: 6dfb e53c 667e dc3d 6a71 523c 38d7 713e
00000330: 8ddc e73b b591 723d a84e 4c3e 7157 51bd
00000340: 86ec 9dbc 22d6 683c 1944 17be 5217 d3bd
00000350: 0f01 64be 2d42 053d 3aa9 02bd 5527 00be
00000360: 73f9 94bd 0822 55bd 4254 36be 5712 b13d
00000370: 301e d33d 0301 efbd d57f 963d 7622 c9bd
00000380: edaa adbd 2946 093e da8d f7bd 7ca2 443d
00000390: 51eb 183e fe8a 60bd 2d3a 013e 2abd 20be
000003a0: 5dbc 9dbd 716b 29bc 1f59 b43d 7d26 68be
000003b0: 6f8b aabd 5aaa 883e 20d0 e4bd e063 ab3d
000003c0: 468d 213e 1d38 4a3d d6d0 d1bd 19cb 0d3e
000003d0: 25b8 ebbd 6df3 7abd 3ffd 27be ff30 94bc
000003e0: c90b b9bb fcda c93d 32f3 a63d adfa 863d
000003f0: 1b74 06bd ab4d 22bd 13aa 26be e7b0 503e
-0.12954251 0.14756027 0.120148785 0.08995873 0.0968069 0.1634361 -0.15436348 0.092966706
0.095199235 -0.022701517 0.13773105 -0.047402352 -0.10497509 0.12848787 0.019339245 -0.0895432
-0.22969963 0.09094646 0.14407685 -0.0751719 0.22409584 0.06033445 0.14073624 0.08944273
0.27585417 -0.024198 0.099706225 -0.20192535 0.15963644 0.06115596 0.048001874 -0.14784873
-0.20105714 0.12935467 -0.021499697 0.021760873 -0.116366245 -0.16588901 0.06031329 0.030137058
-0.21476677 -0.11751392 -0.09714337 0.038323432 0.04721194 -0.0071627656 0.10029673 -0.13648166
0.112394415 0.008902286 0.16067627 -0.12209064 0.083691046 -0.3708322 0.092842564 -0.16146162
0.019795582 0.0941783 0.0011449964 -0.069467776 -0.022832362 -0.15318702 -0.012037341 0.08067621
-0.25776237 -0.09450182 -0.13395606 -0.10148453 -0.26289207 -0.30210817 -0.1773946 -0.12520936
-0.0043751197 -0.06878707 0.15214849 -0.1520492 0.05589753 0.040890954 0.0924475 0.091134526
0.1851264 -0.13983007 0.1322847 0.02419402 -0.033126157 0.1603766 0.09020035 0.20373535
0.16056566 -0.024975924 -0.11709353 -0.20443296 0.14339703 -0.26078147 -0.030534575 0.011495884
-0.02580919 -0.0025275946 -0.13786924 0.18888032 0.10526021 0.13559152 0.004653223 -0.030716266
0.13345528 0.12264658 -0.14074256 0.03208558 -0.2257174 0.25342515 0.016157286 0.051349707
0.03135994 -0.07939409 -0.3296309 0.13935283 -0.18792816 -0.037619673 0.22512144 -0.18682943
0.013103052 -0.19771928 0.09228222 0.091227144 0.17007515 0.0003015346 -0.1405368 0.23998815
0.041478403 0.1151313 0.008331884 0.033249836 0.06815295 0.06990687 0.06515355 0.06492623
0.082402214 0.08414536 -0.058681343 0.07324679 0.13424161 0.15382467 0.18538004 -0.13827987
0.14791082 -0.096750244 -0.17400439 -0.06110911 -0.010467556 -0.21444808 0.014296217 0.21535285
-0.17297669 -0.13537478 0.14126068 0.047282558 -0.113275535 0.15962628 -0.014799392 0.07481428
-0.050244905 -0.0014183859 -0.08332676 0.037206687 0.16042781 0.09866946 -0.047236152 0.13652925
0.001364698 0.10023448 0.07155209 0.0352217 -0.06333085 0.117362544 0.09141131 -0.11728892
-0.06191108 0.08502065 -0.008323921 0.028774677 0.023367953 -0.16606145 -0.08606678 0.047257815
-0.13363394 -0.043833435 -0.075315006 0.048217144 0.11853376 0.13182233 -0.030603522 0.05423079
0.106511645 -0.10994063 -0.12511013 -0.04563567 -0.09381534 0.013936139 0.017708318 0.01692629
0.02807399 0.10766296 0.012844423 0.23617256 0.0070758522 0.05922099 0.1995188 -0.05110878
-0.019277822 0.0142112095 -0.14772071 -0.10307182 -0.22266029 0.032533813 -0.03189967 -0.12515004
-0.07274141 -0.052034408 -0.1780558 0.08646076 0.10308492 -0.11670115 0.07348601 -0.09821026
-0.08479867 0.1340567 -0.12087603 0.04800652 0.14933516 -0.054820053 0.12619849 -0.1569716
-0.07701943 -0.010340557 0.08806061 -0.22670932 -0.08327376 0.26692468 -0.11172509 0.08368659
0.15776548 0.04936992 -0.102449104 0.13847007 -0.11509732 -0.061267305 -0.164052 -0.01808977
-0.005647157 0.09856221 0.081518546 0.06590781 -0.03282557 -0.03962485 -0.16275816 0.20379983

StatefulPartitionedCall/sequential_2/dense_4/MatMul_bias f4 [64]
00000000: e40d 383d 19e0 2c3d eae8 033d 55ad 0a3d
00000010: dee5 963d b13f b3bc b981 e8bc b002 e7bc
00000020: 2763 c5bc 019d 953b ec6d f1bc 72cf ec3c
00000030: ee99 2dbd f384 17bd d516 17bd 7395 abbc
00000040: 5fe3 80bc dc40 d1bc 6ccc f6bc 6d64 aa3c
00000050: 9eb1 703d 16bf 5dbd 4497 38bc 6400 5ebd
00000060: 881c e5bc df0f ecbc eef2 933c ba41 9cbb
00000070: be66 38bc be45 0a3d 2cad f33b 2d77 363d
00000080: c8cb 433d b2d8 2b3d 97bf f93c d156 90bc
00000090: 0c7a 6c3d 025a 7fbc 0ea8 453d f3e5 9fbc
000000a0: a638 3dbc 6de8 bdbc 7c5e 6bbc 2cb9 7e3c
000000b0: a8bb 7cbd a901 7c3a 8b9f 8fbd 75bc 073d
000000c0: 1165 0b3d 566f 36bd be62 c3bc 4be9 3dbd
000000d0: a9fc 113c 41e2 3bbd 1326 aa3c 348e debb
000000e0: 704f 04bd 84ed bb3b 92c5 fd3c 2c04 99bb
000000f0: 16eb ce3b fc1c 0abc fb45 7b3d 2d27 29bd
0.044935122 0.042205904 0.032204546 0.03385671 0.073680624 -0.021880956 -0.02838217 -0.028199524
-0.024095131 0.0045658355 -0.02947136 0.028907511 -0.042383127 -0.036992025 -0.03688701 -0.020945286
-0.015733419 -0.025543623 -0.030126773 0.02079984 0.05876314 -0.054137312 -0.011266533 -0.05419959
-0.027967706 -0.028816162 0.018060174 -0.0047685774 -0.011254964 0.033757918 0.007436415 0.04454725
0.047801763 0.041954704 0.030486865 -0.017619522 0.05773358 -0.015585424 0.048255973 -0.019518828
-0.011549151 -0.023182118 -0.014365789 0.015547078 -0.0617024 0.00096132845 -0.07012852 0.03313871
0.03403193 -0.044539772 -0.023850795 -0.046365064 0.0089103365 -0.04587007 0.020770108 -0.0067918543
-0.03230232 0.005735101 0.030977998 -0.004669687 0.0063146455 -0.008429762 0.061346035 -0.041297127
