app/src/main/assets/foo.tflite (tflite, 60280 bytes, 8 tensors)

StatefulPartitionedCall/keras_lr/conv2d_2/Conv2D/ReadVariableOp f4 [1, 5, 5, 10]
0	0x4006c907	2.1060197
1	0x3fa89d14	1.3172936
2	0xc034b9c6	-2.8238387
3	0xbf3ab079	-0.72925526
4	0x3ff0c65a	1.8810532
5	0x4028d91c	2.6382513
6	0xbf8d1b10	-1.1023884
7	0xbf00b9af	-0.5028333
8	0xbf2f8dc0	-0.6857567
9	0x3f96a3a5	1.176869
10	0x403a68a6	2.9126372
11	0xbe024019	-0.12719764
12	0xbe2767ec	-0.16348237
13	0xc02a2302	-2.6583867
14	0x4000bde2	2.0115895
15	0x3fc0f8a3	1.5075878
16	0xbf67efe0	-0.90600395
17	0x400b5df8	2.1776104
18	0x3e2333a9	0.15937676
19	0xc00b3789	-2.1752646
20	0x3fbae483	1.4600986
21	0x3ebc31d3	0.36756763
22	0x3fad0e2a	1.3519948
23	0xbf494a18	-0.78628683
24	0x401cd635	2.4505742
25	0x40202c1e	2.5026927
26	0xbf645f90	-0.89208317
27	0x3e2abd23	0.16673712
28	0x3fb335cd	1.4000794
29	0xbfd10af8	-1.6331472
30	0xbf423698	-0.75864553
31	0x3fb4302f	1.4077204
32	0x402b2b28	2.674509
33	0xc0015f23	-2.0214317
34	0x3fa58cc5	1.2933584
35	0x400b6bb3	2.1784484
36	0x3ec366c7	0.3816435
37	0xbf9fbb99	-1.2479125
38	0x3f058b78	0.5216594
39	0xbe8629b2	-0.26203686
40	0x3f4da6fd	0.8033293
41	0x4039ee56	2.9051719
42	0x3f0a5fca	0.5405241
43	0x3ff469f9	1.909484
44	0x3fc213f2	1.5162337
45	0x3fd2e60d	1.6476456
46	0x3f67a6a4	0.9048865
47	0x40077ce0	2.1169968
48	0x400c72a2	2.1944966
49	0x3f39409b	0.72364205
50	0xbf95487d	-1.1662747
51	0x3dddc7de	0.10829137
52	0xbe83d7f1	-0.25750688
53	0xc04ce2b5	-3.201337
54	0xc006330a	-2.0968652
55	0xbcb0557b	-0.021525135
56	0x3f00c74f	0.5030412
57	0xbffbe1e7	-1.9678315
58	0xbef66cd2	-0.48129898
59	0x3fd528aa	1.6653035
60	0xbfd3abdb	-1.6536821
61	0x3eb3d53c	0.35123622
62	0xbfc0b401	-1.5054933
63	0x3f7a63cb	0.9780852
64	0xc0591294	-3.391759
65	0xbd139eb1	-0.03604001
66	0x3f719867	0.9437317
67	0x3fb5d0a7	1.4204301
68	0xbf23aa2d	-0.6393154
69	0xbfda20cc	-1.7041259
70	0xc0a8f307	-5.2796664
71	0x401d3342	2.4562535
72	0xc00f9196	-2.2432609
73	0x3e06eb4b	0.13175695
74	0xbf966986	-1.1750953
75	0x3f934845	1.150643
76	0xbed717eb	-0.42010435
77	0x3f8add70	1.0848827
78	0xbf30e8af	-0.69105047
79	0xbf289910	-0.65858555
80	0xbfb0bea5	-1.380818
81	0x3f9a273a	1.2043221
82	0x3d74e458	0.059788078
83	0xbf8d8697	-1.1056699
84	0x400a66cc	2.1625242
85	0xbf33f6a3	-0.7029821
86	0xbf8d20c2	-1.1025622
87	0xbfaf881e	-1.3713415
88	0xbe9ad82a	-0.30243045
89	0xc012739d	-2.2883065
90	0xc04f7943	-3.2417762
91	0xbe95660a	-0.29179412
92	0x3f7fc81b	0.9991471
93	0x3fc512fc	1.5396419
94	0x3fa88e77	1.3168477
95	0x3f652d08	0.8952184
96	0x3fd71a3f	1.6804885
97	0xbf1ce429	-0.61285645
98	0x3fd4455b	1.6583666
99	0x3f49b4a5	0.78791267
100	0x3ee1bde6	0.44090194
101	0x400da9b6	2.2134833
102	0x3f79d94d	0.975972
103	0xbf1c05ad	-0.6094616
104	0xbfe68a18	-1.8010893
105	0x3fbca5b7	1.4738072
106	0x3e3523c2	0.17689422
107	0xc0005ed9	-2.005789
108	0x3ec37b94	0.3818022
109	0xbe20aa9b	-0.15690081
110	0xc03afbda	-2.9216218
111	0x3f8cc6f7	1.0998219
112	0x3efe7de6	0.49705428
113	0x3f304627	0.68857044
114	0x3fb615af	1.4225367
115	0xbf0f4478	-0.5596385
116	0xbfd75aae	-1.6824548
117	0x3f932209	1.1494762
118	0xbdadb08a	-0.08480938
119	0x3f8fd826	1.1237838
120	0x3f9de200	1.2334595
121	0x3daa9607	0.08329397
122	0xbfa1cc5a	-1.2640488
123	0x3efbfb25	0.49215046
124	0xbfc7d929	-1.5613147
125	0xbff74d1e	-1.9320409
126	0xbdffe804	-0.12495425
127	0x3e7103c6	0.23536596
128	0x3f121fc8	0.57079744
129	0x40069c10	2.1032753
130	0xbe97bb98	-0.2963531
131	0xbebf97ca	-0.37420493
132	0xbea581e8	-0.32325673
133	0xbfecf779	-1.8513023
134	0xc005f7bd	-2.0932457
135	0x3daf94c4	0.08573297
136	0xbf9bc421	-1.2169229
137	0xc00d1148	-2.2041798
138	0xc00e22ba	-2.2208695
139	0x3f0f69f0	0.5602102
140	0x3f058865	0.52161247
141	0xbe0ba167	-0.13635789
142	0x3d55df1b	0.052214723
143	0x3fed71f0	1.8550396
144	0xbff8989f	-1.9421576
145	0xbf4c2c0c	-0.7975471
146	0x40047f4f	2.0702703
147	0x403d35cb	2.9564083
148	0x3fda6c13	1.7064232
149	0x3fabd8fd	1.3425595
150	0x3db9338c	0.09043035
151	0x3e15ce23	0.14629416
152	0xbfafee1a	-1.3744538
153	0x3f9955e2	1.1979334
154	0x403cd98b	2.9507778
155	0xbf4dedfe	-0.8044127
156	0xbf2b5ecd	-0.6694153
157	0xbf3e7a68	-0.7440553
158	0xbfb5febc	-1.4218364
159	0x3fbd3fc9	1.4785091
160	0x40507324	3.2570276
161	0xbcc92147	-0.024552
162	0xbf3274d9	-0.69709545
163	0x3f84902b	1.0356497
164	0x3e8f4670	0.27983427
165	0xbdd2bd78	-0.102900445
166	0xbf509892	-0.81482804
167	0xbf841b3d	-1.0320812
168	0xbf8fe010	-1.1240253
169	0xc00b1fbd	-2.1738122
170	0x409278ac	4.5772305
171	0xbf9fae2f	-1.2475032
172	0xbf0c7cda	-0.5487801
173	0xbed49d20	-0.41526127
174	0x3e0a3e18	0.1350025
175	0xbf7458eb	-0.9544818
176	0x3dc5f887	0.096665435
177	0x40583fb4	3.3788881
178	0xbe840c5d	-0.25790682
179	0xbfed53a5	-1.8541151
180	0x40a51936	5.1593275
181	0xbeea6968	-0.45783544
182	0xc00a7747	-2.16353
183	0x3f27f121	0.6560231
184	0xc03bc3bc	-2.9338217
185	0x3f653c9f	0.89545625
186	0xbf5611e7	-0.83621067
187	0xc01dc484	-2.4651194
188	0xbe6cb20e	-0.23114797
189	0xbf1e1f68	-0.6176667
190	0x40542b37	3.3151376
191	0x3cf0189e	0.029308613
192	0x3fb02993	1.3762687
193	0x3e066376	0.13123879
194	0xbfe3b30d	-1.7789017
195	0xbfb74a1e	-1.4319494
196	0x3f4a6be3	0.7907087
197	0xbd14a7ac	-0.036292717
198	0x3f8f3a3d	1.1189648
199	0x3dc25a88	0.09489924
200	0xbf90cf49	-1.1313258
201	0xbf5cb16d	-0.8620823
202	0x402ba2f2	2.6818204
203	0x3eaf5f6b	0.34252486
204	0xbfa808b7	-1.312766
205	0xbfc50191	-1.5391103
206	0xbf380466	-0.7188171
207	0x3e4239da	0.18967381
208	0x3ff28fda	1.895015
209	0x3fa0c65c	1.2560534
210	0xbf98ab65	-1.1927305
211	0xbff50b95	-1.914416
212	0x3f0bbb95	0.545831
213	0xbeeaa2be	-0.45827287
214	0x3e3726dd	0.17885919
215	0xbf940ac5	-1.1565787
216	0x3d812dae	0.06307541
217	0xc0309b48	-2.7594776
218	0xbf1661a7	-0.58742756
219	0xc004f83d	-2.0776513
220	0xc0103707	-2.2533586
221	0xbf47e49c	-0.78083205
222	0x3fb84202	1.4395144
223	0x3e4d09cd	0.2002327
224	0xbedb1768	-0.42791295
225	0xbf386178	-0.72023726
226	0x3dd42f0d	0.10360537
227	0x40422d54	3.0340166
228	0xbe855194	-0.26038802
229	0x3f9de3c0	1.2335129
230	0xbfeffb48	-1.874856
231	0xbfbb6393	-1.4639763
232	0xbf02b9f4	-0.5106499
233	0xbf684cdd	-0.90742284
234	0x3fffea62	1.9993403
235	0xbfae2c89	-1.3607341
236	0x3f4b81b2	0.79494774
237	0xc0206541	-2.50618
238	0xc000f099	-2.014685
239	0x3f073f42	0.528309
240	0xc04dcd75	-3.215665
241	0xbfe48398	-1.7852659
242	0xbffe7a99	-1.9881164
243	0x403daaeb	2.963557
244	0xbe8346e9	-0.25640038
245	0xbfabaea3	-1.341267
246	0x4005060d	2.0784943
247	0x3f7f1dea	0.9965502
248	0x3f75207c	0.9575269
249	0xbe6dce74	-0.23223287

StatefulPartitionedCall/keras_lr/conv2d_2/Conv2D_bias f4 [10]
0	0x3e37fca0	0.17967463
1	0xc064d5d4	-3.575551
2	0x3fa599f1	1.2937604
3	0x3ce84598	0.028353497
4	0x3d986238	0.07440609
5	0xbfa7111b	-1.3052095
6	0xbebb0262	-0.36525255
7	0xbe59da08	-0.21274579
8	0xbfbe1bd6	-1.4852245
9	0x3f8a7ac8	1.081872

StatefulPartitionedCall/keras_lr/conv2d_3/Conv2D/ReadVariableOp f4 [15, 3, 3, 10]
0	0xbd82f34f	-0.06394064
1	0x3dd56a9b	0.10420724
2	0xbded8b35	-0.11598817
3	0xbd79eac9	-0.061014924
4	0x3dc1d917	0.09465235
5	0x3e40b45b	0.188188
6	0xbdda160d	-0.10648737
7	0xbd5fd12c	-0.05464284
8	0x3c565cf3	0.013083684
9	0xbdb5014b	-0.08838137
10	0x3d54e68a	0.05197767
11	0x3c5e38ae	0.013563318
12	0x3c8154bf	0.01578748
13	0xbdab80b6	-0.08374159
14	0x3d0419a7	0.032251026
15	0xbdbd9f15	-0.09258858
16	0xbdde8dcb	-0.108668886
17	0xbd986e6d	-0.07442937
18	0x3c69a6a0	0.014260918
19	0x3d13769f	0.036001798
20	0x3c5ab392	0.013348477
21	0x3de984c0	0.11402273
22	0xbd0b53ec	-0.03401558
23	0xbd60f296	-0.054918848
24	0x3db6a8e5	0.08918933
25	0x3e8cb9ba	0.27485448
26	0xbdbf74a7	-0.093484215
27	0x3adf9b1e	0.0017059778
28	0xbd9b984c	-0.07597408
29	0x3c36c78a	0.011155972
30	0x3e6b8606	0.23000345
31	0xbd1e64d3	-0.038670372
32	0xbd8ad4e4	-0.06778887
33	0x3c125102	0.008930447
34	0xbd924a6e	-0.071431026
35	0x3db542ed	0.08850656
36	0x3c9d1b05	0.019177923
37	0x3c828091	0.015930446
38	0xbd2e1fea	-0.042510904
39	0xbbbf8e35	-0.00584581
40	0xbcbe95d9	-0.023264812
41	0x3da726c9	0.081616946
42	0x3bd43d54	0.0064770374
43	0x3c848415	0.016176263
44	0x3ddeb438	0.10874218
45	0xbd6ae349	-0.057345662
46	0xbc9ca91c	-0.019123606
47	0xbd5069ee	-0.050882272
48	0x3d407f44	0.04699637
49	0xbd551485	-0.052021522
50	0x3dbfae92	0.093594685
51	0xbddded91	-0.10836328
52	0x3d093ebf	0.033507105
53	0xbc91dab2	-0.017804477
54	0x3d80d121	0.06289888
55	0xbb806545	-0.0039183223
56	0xbd7aa310	-0.061190665
57	0xbb6a50ae	-0.0035753655
58	0x3ce878d3	0.028377926
59	0xbc5d6264	-0.013512228
60	0x3c8223b3	0.015886163
61	0x3e096ca6	0.13420352
62	0x3996f8f8	0.00028795726
63	0xbd849813	-0.06474318
64	0x3ddbde36	0.10735743
65	0x3e477a2e	0.19480202
66	0x3da3894f	0.07985174
67	0x3d3ac99b	0.045602422
68	0xbc6cbd5f	-0.014449446
69	0xbd0d0181	-0.034425262
70	0xbd561531	-0.052266303
71	0x3d9dfea0	0.077145815
72	0xbbda5961	-0.006663487
73	0x3ba56631	0.0050475826
74	0x3e59b5f5	0.21260817
75	0xbc0fd1bc	-0.008778032
76	0x3c750fa2	0.01495734
77	0xbc23615e	-0.009971945
78	0x3cb0cbd4	0.021581568
79	0x3ddce8fd	0.107866265
80	0x3d323e9d	0.043516744
81	0x3e4757d0	0.19467092
82	0x3d195e60	0.03744352
83	0x3c0c8f1d	0.008579043
84	0x3d147e33	0.036253165
85	0x3dd12b36	0.1021332
86	0xbcae62df	-0.02128738
87	0x3dc415a0	0.09574437
88	0x3dae0800	0.0849762
89	0x3d96d3b7	0.073646
90	0x3d80bb68	0.06285745
91	0x3c9ac5d8	0.018893167
92	0x3d41034e	0.047122292
93	0x3d8067d8	0.062698066
94	0x3d9babd6	0.076011345
95	0x3d0feb63	0.03513659
96	0x3e287be6	0.16453514
97	0xbdae5a7b	-0.085133515
98	0x3da38a12	0.07985319
99	0xbdac7df1	-0.08422459
100	0x3e13dd43	0.14439873
101	0x3e05d59b	0.13069765
102	0xbd1ebe0a	-0.038755454
103	0x3ddf2f1f	0.108976595
104	0x3d0f0b49	0.03492287
105	0x3e586f53	0.21136217
106	0x3e108aae	0.14115402
107	0x3e141024	0.14459282
108	0xbd463abf	-0.04839587
109	0x3d57b332	0.05266113
110	0x3c92847b	0.017885437
111	0xbd93a15e	-0.07208513
112	0xbd5325d9	-0.051549766
113	0xbd9119ca	-0.07084997
114	0x3bcd7fa0	0.0062713176
115	0x3dba06ff	0.09083366
116	0xbccc8295	-0.02496461
117	0x3d47c066	0.04876747
118	0x3b737bfb	0.0037152756
119	0x3de0ea9b	0.109822474
120	0x3dea5da3	0.11443641
121	0x3c758d7c	0.014987346
122	0xbd945259	-0.07242269
123	0x3c78b36a	0.015179494
124	0xbd5d7ff2	-0.054077096
125	0x3d72301b	0.05912791
126	0x3e1c5a17	0.15268742
127	0xbd2770df	-0.040879127
128	0x3c3a0976	0.011354795
129	0x3b69ad78	0.0035656374
130	0xbd9f40bd	-0.0777602
131	0xbd70aef8	-0.058760613
132	0xbdc91c37	-0.09819835
133	0x3d896de3	0.06710412
134	0x3df1b852	0.118027344
135	0xbd4d6666	-0.050146483
136	0xbd2d39d5	-0.04229148
137	0x3d9070e5	0.07052783
138	0x3d4d2aa2	0.050089486
139	0x3ca131eb	0.019677123
140	0x3ddfa586	0.10920243
141	0x3dd9de75	0.106381334
142	0x3d292993	0.041299414
143	0x3d134b3d	0.035960425
144	0xbd827c2d	-0.06371341
145	0x3d2cac51	0.04215652
146	0xbda649ea	-0.08119567
147	0xbd639be1	-0.05556858
148	0xbdfb9f71	-0.122862704
149	0xbd669212	-0.056291647
150	0xbb7363ae	-0.003713827
151	0xbe135dc0	-0.14391232
152	0xbdb8288c	-0.08992109
153	0x3d590f4b	0.0529931
154	0xbba056a2	-0.00489314
155	0xbd8fd443	-0.070229076
156	0x3db621db	0.08893176
157	0x3ab810aa	0.0014043052
158	0x3c38a7ca	0.011270473
159	0x3d659e4a	0.05605916
160	0xbd0c0ac9	-0.034189973
161	0xbe172b85	-0.14762695
162	0x3d23f8f2	0.040032335
163	0x3e1012bf	0.14069651
164	0xbd37f302	-0.044909485
165	0xbc96dc21	-0.018415513
166	0xbdb8f6c5	-0.090314426
167	0x3d8506d3	0.06495442
168	0xbda716bd	-0.08158634
169	0x3bf8ffbb	0.007598845
170	0xbd102773	-0.03519387
171	0xbe41cb0e	-0.18925115
172	0xbde0da48	-0.10979134
173	0x3dbc433f	0.09192514
174	0xbd59176c	-0.053000852
175	0xbe0dbbc4	-0.13841158
176	0x3d451377	0.048114266
177	0x3d4bb81f	0.04973614
178	0xbe5bc947	-0.214635
179	0x3d93a582	0.072093025
180	0x3e55fe59	0.20897807
181	0x3e382a1d	0.17984815
182	0xbe489be6	-0.1959072
183	0x3cd0bbd4	0.025480188
184	0xbd7e5c78	-0.062099904
185	0x3cc1c367	0.023652745
186	0x3ca3d180	0.019997358
187	0xbbd8475c	-0.0066003036
188	0xbd263a12	-0.040582724
189	0xbd1fec0e	-0.03904348
190	0x3f090920	0.5352955
191	0xbd9586e2	-0.073011175
192	0x3d685bd4	0.0567282
193	0x3c2c97f0	0.010534272
194	0x3e2f3a7d	0.17112155
195	0x3e8fb3db	0.28066906
196	0xbd9dbd1c	-0.077020854
197	0xbd6a1edb	-0.057158332
198	0xbd32d327	-0.0436584
199	0x3ca0a4be	0.019609805
200	0xbdaab21e	-0.083347544
201	0x3d1867b2	0.037208267
202	0x3bbfc2ad	0.0058520646
203	0xbcc8bfcf	-0.024505524
204	0x3c3e33e4	0.011609051
205	0xbd55571e	-0.052085035
206	0xbe54cc6e	-0.20781109
207	0xbda0a1c0	-0.07843351
208	0xbdfc5d61	-0.12322498
209	0xbd9ebcc7	-0.0775085
210	0x3e9754ba	0.2955683
211	0xbd82297c	-0.06355569
212	0xbd9cbf03	-0.0765362
213	0x3c93c5a8	0.018038586
214	0x3dc30205	0.095218696
215	0xbe176107	-0.14783107
216	0x3c82c2ca	0.015962023
217	0x3c4906ed	0.012269718
218	0xbc8e2774	-0.017352797
219	0xbc6b040d	-0.0143442275
220	0xbe1b9d51	-0.1519673
221	0xbdf31b2e	-0.118704185
222	0x3dc44f24	0.095854074
223	0x3b18d2c2	0.002331898
224	0x3cde403a	0.027130235
225	0xbc440cd9	-0.011965954
226	0xbdddb48c	-0.10825452
227	0x3bf53c07	0.0074839625
228	0xbdce0c19	-0.10060901
229	0x3d031986	0.032006763
230	0x3e7d66e2	0.24746278
231	0x3d88c30c	0.06677827
232	0x3cb0d04b	0.021583697
233	0x3c70053d	0.014649686
234	0x3e30c4fd	0.17262645
235	0xbe117cf5	-0.14207824
236	0xbe4c1806	-0.19931039
237	0x3b095f72	0.002096143
238	0xbe3931bc	-0.18085378
239	0xbd0a85d0	-0.03381902
240	0x3cc2cf77	0.023780568
241	0x3e558f90	0.20855546
242	0xbd2f824e	-0.042848878
243	0x3b7d1d96	0.003862237
244	0x3d2bd007	0.041946437
245	0x3c847e10	0.016173393
246	0xbcd4a15a	-0.025955845
247	0x3d0eab29	0.0348312
248	0xbc609371	-0.013707028
249	0x3dad0fca	0.08450277
250	0x3e447920	0.1918683
251	0xbe980d9b	-0.2969788
252	0xbd1da6d4	-0.038489178
253	0x3ccdf77c	0.025142424
254	0x3cdc4769	0.02688952
255	0x3e19e7fc	0.15029901

StatefulPartitionedCall/keras_lr/conv2d_3/Conv2D_bias f4 [15]
0	0xbeb8a713	-0.36064968
1	0xbe0d2ac4	-0.13785845
2	0xbe736315	-0.23768266
3	0xbdbbd166	-0.09170799
4	0x3c83c3ef	0.01608464
5	0x3da772f4	0.081762224
6	0xbd65495f	-0.055978175
7	0xbe658288	-0.22413075
8	0xbe16b2ed	-0.14716692
9	0x3d2443e6	0.040103815
10	0xbd24f3e7	-0.040271666
11	0xbd8063c0	-0.06269026
12	0xbe83aa8e	-0.2571606
13	0xbcc66354	-0.024217285
14	0xbc3e6aa8	-0.0116221085

StatefulPartitionedCall/keras_lr/conv2d_4/Conv2D/ReadVariableOp f4 [20, 3, 3, 15]
0	0xbce3d7d2	-0.027812872
1	0xbd0c48b2	-0.034249015
2	0xbc893ecc	-0.016753577
3	0x3b3a92ff	0.0028468964
4	0xbc8762c5	-0.01652659
5	0x3c3c4667	0.011491395
6	0xbc400bdb	-0.011721577
7	0xbcae1b76	-0.021253329
8	0xbd0feca8	-0.035137802
9	0xbc84c138	-0.016205415
10	0xbd763250	-0.060106575
11	0xbd71bf63	-0.05902041
12	0xbc1eb31a	-0.009686256
13	0xbd4ca663	-0.049963366
14	0xbd5b4378	-0.05353114
15	0x3b6cdbd8	0.003614178
16	0x3c197fd3	0.009368855
17	0xbbb142d8	-0.0054095797
18	0x3c9e6d86	0.019339334
19	0xbcdf3d85	-0.027251014
20	0x39348af3	0.000172179
21	0x3d7b47c2	0.06134773
22	0xbc4ee786	-0.012628442
23	0x3dc20c88	0.094750464
24	0x3d7f5dff	0.0623455
25	0x3d9148c1	0.07093955
26	0x3db81d93	0.08990016
27	0x3bf895c9	0.007586215
28	0x3cba9957	0.022778196
29	0xbbb35050	-0.0054722205
30	0xba580584	-0.0008240568
31	0x3c5849f6	0.013201227
32	0xbcce895b	-0.02521198
33	0xbc24219b	-0.010017778
34	0xbd40860f	-0.04700285
35	0xbcd47b42	-0.02593768
36	0x3da0b2ad	0.0784658
37	0xbcc34a18	-0.023839042
38	0xbd1d33aa	-0.03837935
39	0x3d87b86f	0.06626975
40	0x3dd18608	0.102306426
41	0x3ddd7b5e	0.10814546
42	0xbd3861ba	-0.045015074
43	0xbcaa4272	-0.020783637
44	0x3d02ce69	0.03193513
45	0xbd1c52ab	-0.038164776
46	0xbdcbc905	-0.09950451
47	0xbd058aac	-0.03260295
48	0xbcdf1071	-0.02722952
49	0xbc5f9297	-0.01364579
50	0x3ae85286	0.0017724789
51	0xbd983413	-0.07431807
52	0xbd17cd3b	-0.037060957
53	0xbd0326a9	-0.03201929
54	0x3bfa4502	0.007637621
55	0xbdfcb453	-0.123390816
56	0xbda62965	-0.08113364
57	0xbd8aa006	-0.06768803
58	0xbd306b8e	-0.043071322
59	0xbd818efb	-0.063260995
60	0x3bc13d55	0.005897204
61	0xbc5d6162	-0.013511987
62	0xbcd1a332	-0.025590513
63	0x3d029c47	0.03188732
64	0x3ce88042	0.02838147
65	0x3b8602d4	0.0040896926
66	0x3d3bec20	0.045879483
67	0xbc043e52	-0.008071499
68	0x3c8ba26a	0.017045218
69	0x3d371a7f	0.044703003
70	0x3ce66cf9	0.028128134
71	0x3c029252	0.007969456
72	0x3d1d7ad8	0.03844723
73	0x3d8753a5	0.06607751
74	0x3cfac578	0.030611739
75	0x3ba09bff	0.0049014087
76	0x3cd84e10	0.02640441
77	0xbcf3ab17	-0.029744668
78	0xbc3cbc81	-0.011519552
79	0xbd711b34	-0.058863834
80	0xbcbb78b1	-0.022884699
81	0x3d3df4c0	0.04637599
82	0xbcb58f64	-0.0221631
83	0x3cc474c7	0.023981465
84	0x3d649fb3	0.055816364
85	0x3dcd98b4	0.100388914
86	0x3d9bdcc5	0.07610468
87	0xbca95a06	-0.02067281
88	0x3d48a19c	0.048982248
89	0x3d770953	0.060311627
90	0xbc6f8b11	-0.014620558
91	0xbdad4ef6	-0.08462326
92	0xbaa2c0b5	-0.001241705
93	0x3b893c3f	0.00418809
94	0x3c503d39	0.012709909
95	0x3ca9f40b	0.020746252
96	0xbd2bc674	-0.041937307
97	0xbc7d746e	-0.0154696535
98	0xbd050e44	-0.032484308
99	0x3ca17799	0.019710349
100	0xbdacd848	-0.0843969
101	0xbd1e9a72	-0.03872151
102	0xbd4f596c	-0.05062239
103	0xbde7f3c6	-0.11325793
104	0xbda7ade7	-0.08187466
105	0xbad38aa4	-0.0016139341
106	0xbbcfa667	-0.0063369754
107	0xbcbbb76f	-0.022914616
108	0x3cde5846	0.027141701
109	0x3c15c6b0	0.009141609
110	0x3c7fc975	0.015611996
111	0x3c2f8749	0.010713407
112	0x3a9180f9	0.0011101059
113	0x3c903c91	0.017607005
114	0x3d1a8203	0.037721645
115	0xbd6fbcc3	-0.058529627
116	0x3a020b74	0.0004960813
117	0x3c5473fa	0.012967104
118	0x3cc86d2c	0.02446612
119	0xbcd57a4e	-0.026059296
120	0xbc8e3f8d	-0.017364288
121	0x3d2837ab	0.041068714
122	0xbd1ead5f	-0.03873956
123	0xbcc0ec8e	-0.023550298
124	0xbd8c431c	-0.068487376
125	0xbd6d3d1c	-0.057919607
126	0x3be4039d	0.0069584385
127	0xbd0e384c	-0.034721658
128	0x3c4ec1c3	0.012619439
129	0xbc4eb51d	-0.012616423
130	0x3dde62bf	0.10858678
131	0x3d4fa58c	0.050694987
132	0x3cc29f03	0.023757463
133	0x3d3668b3	0.044533443
134	0x3dab1a5d	0.08354638
135	0x3ce5dd01	0.028059484
136	0xbcdd0f5b	-0.026984861
137	0x3cb5b490	0.022180825
138	0x3c331e32	0.010932492
139	0xbc751e33	-0.014960813
140	0xbcda1d24	-0.026625223
141	0xbc66fd0f	-0.01409842
142	0x3ae2d3fc	0.0017305608
143	0xbb9acdce	-0.004724241
144	0x3ce6ce19	0.028174447
145	0xbbeca9ef	-0.007222406
146	0xbc35a382	-0.011086347
147	0x3cf8bb87	0.030362858
148	0xbc261759	-0.010137402
149	0x3c681268	0.014164545
150	0x3d7f805c	0.062378272
151	0xbc13b54c	-0.0090153925
152	0x3d4d2e95	0.050093252
153	0x3d7cc19e	0.061708085
154	0x3c8079fb	0.015683165
155	0x3d0b3264	0.033983603
156	0x3d5ad3d8	0.053424686
157	0x3d300ffc	0.042983994
158	0x3bfd225c	0.007725043
159	0x3db6ccd4	0.089257866
160	0xbb6f301f	-0.0036497188
161	0x3ce000c8	0.027344123
162	0xbbf1429a	-0.007362676
163	0xbd7567c4	-0.05991341
164	0xbcd25fd7	-0.025680466
165	0xbd14f3df	-0.036365386
166	0xbda1787e	-0.0788431
167	0xbd159f55	-0.036528904
168	0x3cb2f0e3	0.02184338
169	0xbaf0f32e	-0.001838302
170	0xbb8a78f7	-0.004225846
171	0xbce92643	-0.028460627
172	0xbd0e8f50	-0.034804642
173	0xbccaec15	-0.024770776
174	0x3dd312c2	0.10306312
175	0xbd86fa15	-0.06590668
176	0x3c2b9850	0.010473326
177	0xbdb54631	-0.088512786
178	0xbdd6ca98	-0.104878604
179	0xbdef914a	-0.116976336
180	0x3c5fcad3	0.013659197
181	0x3c2bfb91	0.01049699
182	0xbc29ce14	-0.010364074
183	0x3c774207	0.015091426
184	0xbd1470c7	-0.036240365
185	0xbd0a2c3a	-0.033733584
186	0x3b920569	0.0044562113
187	0xbcb6a718	-0.022296473
188	0x3cca814f	0.024719862
189	0xbcb63b16	-0.022244971
190	0xbcdd2603	-0.026995664
191	0xbd2727cd	-0.04080944
192	0x3ccf390c	0.025295757
193	0xbc4b5d56	-0.01241239
194	0xbcc854a0	-0.024454415
195	0x3d3db0a9	0.046311054
196	0x3d1f6508	0.03891471
197	0x3d8cd17e	0.06875895
198	0x3d6d115e	0.05787789
199	0xbd06054d	-0.0327199
200	0xbcb267f7	-0.02177809
201	0x3d8133c8	0.063087046
202	0x3d9bddc0	0.07610655
203	0x3dd7b1ea	0.10531981
204	0x3dbb22d7	0.091375045
205	0x3c7cd5b7	0.015431813
206	0x3d46d6d1	0.04854471
207	0x3d55dcba	0.052212454
208	0xbca90a7d	-0.020634884
209	0xbc8eddd8	-0.017439768
210	0x3d2e0735	0.042487342
211	0xbc11c6dc	-0.008897509
212	0xbbb5eae4	-0.005551683
213	0x3d01b0b9	0.031662676
214	0xbcc667a5	-0.024219343
215	0x3ca5310f	0.020164995
216	0x3d2da1a6	0.042390488
217	0x3c6f08ff	0.014589547
218	0x3d975f83	0.07391264
219	0x3e167aa8	0.14695227
220	0x3d20a02d	0.039215256
221	0x3dddc544	0.10828641
222	0xbd05f29f	-0.032702085
223	0xbd8cc0df	-0.06872725
224	0xbd2b28df	-0.041787025
225	0x3be80989	0.007081215
226	0xbcd41fe1	-0.025894107
227	0xbc4410fd	-0.011966941
228	0xbd62a9be	-0.05533766
229	0xbd809dfe	-0.062801346
230	0xbd83b463	-0.064308904
231	0xbcb6c24b	-0.022309443
232	0xbd728559	-0.0592092
233	0xbd9e8b8e	-0.07741462
234	0xbd9339c8	-0.07188755
235	0xbd1c55a7	-0.038167622
236	0xbd89634c	-0.067083925
237	0xba90d338	-0.0011049276
238	0xbcf1b377	-0.02950452
239	0xbd0561ee	-0.032564096
240	0x3cb25e64	0.021773525
241	0x3d1933ac	0.037402794
242	0x3cd5b100	0.026085377
243	0x3cecb67c	0.02889561
244	0xbd38a57f	-0.045079704
245	0xbd37cf68	-0.044875532
246	0x3c59653d	0.013268766
247	0xbb775db5	-0.0037745063
248	0xbbb9d405	-0.0056710267
249	0xbdacef48	-0.08444077
250	0xbd39425f	-0.045229312
251	0xbd1f23a1	-0.038852338
252	0x3d1d8822	0.038459904
253	0x3c0543f6	0.008133879
254	0x3c9e8dfa	0.01935481
255	0x3c94d921	0.018169941

StatefulPartitionedCall/keras_lr/conv2d_4/Conv2D_bias f4 [20]
0	0xbd62ae81	-0.0553422
1	0xbe54eac9	-0.20792688
2	0xbe30e671	-0.17275406
3	0x3efa8221	0.48927405
4	0x3f27e4f5	0.65583736
5	0xbcca7501	-0.024713995
6	0x3e96570d	0.2936329
7	0xbcdb2209	-0.026749628
8	0xbe9dcfb8	-0.3082254
9	0x3f38785c	0.72058654
10	0xbea8fe37	-0.3300645
11	0x3f751d01	0.9574738
12	0x3d8f5f7f	0.07000636
13	0x3f084e5e	0.5324458
14	0x3f00cd04	0.5031283
15	0x3d022d2f	0.03178137
16	0xbbbc74ff	-0.0057512517
17	0xbdff3078	-0.124604166
18	0xbf36cedf	-0.7140941
19	0x3dd86dc0	0.10567808

StatefulPartitionedCall/keras_lr/dense_3/MatMul/ReadVariableOp/transpose f4 [10, 980]
0	0xbda53af3	-0.08067884
1	0xbd860400	-0.06543732
2	0x3cd6898c	0.026188634
3	0x3d01f2e0	0.031725764
4	0xbcc2a9e6	-0.023762655
5	0xbca1b9fc	-0.019742005
6	0x3d1f0a71	0.038828317
7	0x3d4c5d42	0.049893625
8	0x3dacd6f9	0.0843944
9	0xbd1d614c	-0.038422868
10	0x3d581b15	0.052760202
11	0x3cb3d81b	0.021953633
12	0xbd313a15	-0.043268282
13	0xbbe96202	-0.007122279
14	0xbc17905b	-0.009250726
15	0xbd7c8174	-0.061646894
16	0x3e25a526	0.1617628
17	0xbc8dec79	-0.017324673
18	0x3d37a745	0.044837255
19	0xbe017af2	-0.12644556
20	0xbe2133b4	-0.1574238
21	0xbddfc371	-0.10925949
22	0x3dbb899f	0.091571085
23	0x3db3d87f	0.08781528
24	0xbd2d2910	-0.04227549
25	0xbe9e5934	-0.30927432
26	0xbc8456af	-0.016154615
27	0x3dcffc35	0.101555265
28	0x3d9e4467	0.077278905
29	0xbd159872	-0.036522336
30	0x3d6ce1e4	0.057832614
31	0x3c6dc2c8	0.0145117715
32	0x3d013db0	0.03155297
33	0x3c1a49de	0.009417025
34	0x3d4f0a19	0.05054674
35	0x3d2d2498	0.042271227
36	0x3ddeee77	0.10885327
37	0xbd4008f8	-0.046883553
38	0x3de8571d	0.113447405
39	0xbd92215a	-0.071352676
40	0xbe90b633	-0.28264007
41	0x3ce7077e	0.028201815
42	0x3dd65139	0.10464711
43	0x3cca5774	0.024699904
44	0xbdd9feed	-0.10644326
45	0xbe950842	-0.29107863
46	0xbde037d7	-0.109481506
47	0x3d4ba140	0.049714327
48	0x3de513a3	0.11185386
49	0xbce2665f	-0.027636705
50	0x3dda4689	0.10657985
51	0xbbcb358f	-0.006201453
52	0xbd664a7f	-0.05622339
53	0xbd08ef13	-0.033431124
54	0x3b7395b6	0.0037168092
55	0x3c620d22	0.013797076
56	0x3d9b6e49	0.075893946
57	0xbe2540cd	-0.16138001
58	0x3dd4026e	0.10352026
59	0xbdc011d9	-0.09378404
60	0xbe92b072	-0.28650242
61	0xb892939a	-6.9893154e-05
62	0x3d54b334	0.051928714
63	0x3dcca49f	0.099923365
64	0xbd79451a	-0.060856916
65	0xbe9a71c7	-0.3016493
66	0xbd64207a	-0.055695035
67	0x3d47ecfe	0.048809998
68	0x3db8249a	0.08991356
69	0xbd7b6ce0	-0.06138313
70	0x3d4c6e57	0.049909916
71	0x3d312351	0.04324657
72	0xbdd0a6bb	-0.10188051
73	0xbd58b3cc	-0.052905843
74	0x3d17a21b	0.03701983
75	0xbd8411b4	-0.06448689
76	0x3d9e592f	0.07731854
77	0xbdb9247b	-0.09040161
78	0x3dbeac09	0.09310157
79	0xbdcf48ca	-0.10121305
80	0xbdc2b543	-0.09507229
81	0x3dcf6370	0.10126388
82	0x3d82a3c7	0.06378894
83	0x3d6becf6	0.05759903
84	0xbd510b44	-0.051036134
85	0x3b60cf69	0.0034303314
86	0xbd803b1b	-0.062612735
87	0xbd4e91ac	-0.050431892
88	0x3d83f08a	0.064423636
89	0x3d88112f	0.066439025
90	0x3d3c4f80	0.045974255
91	0x3d517194	0.051133707
92	0xbe2e12bf	-0.16999339
93	0xbda2fe31	-0.079586394
94	0xbd828c61	-0.063744314
95	0xbe295274	-0.1653536
96	0x3d3bb24c	0.045824334
97	0xbe188fd9	-0.14898624
98	0x3d9a98be	0.075486645
99	0xbe1d0f91	-0.1533797
100	0xbed33382	-0.41250235
101	0xbe90841f	-0.282258
102	0xbcd10e88	-0.025519624
103	0x3d970282	0.07373525
104	0x3d9a2d8b	0.07528218
105	0xbe01b7a9	-0.12667717
106	0xbcbf0fba	-0.023322929
107	0x3c2f13ba	0.0106858555
108	0xbde06bf9	-0.10958094
109	0x3d66e6cd	0.056372453
110	0xbda83d8e	-0.082148656
111	0x3d937e77	0.07201856
112	0xbd3b51ae	-0.045732193
113	0x3c7be7b3	0.015375066
114	0x3d1630ee	0.036667757
115	0xbd630667	-0.055426028
116	0x3d99db9e	0.07512592
117	0xbe20767b	-0.15670197
118	0xbd80df58	-0.062925994
119	0xbde3d080	-0.111237526
120	0xbd338faa	-0.04383818
121	0xbda095e8	-0.07841092
122	0xbd52ad1b	-0.051434617
123	0xbcfaa54f	-0.030596403
124	0xbd0e6de4	-0.03477277
125	0xbe7d2bc5	-0.24723728
126	0xbd707892	-0.058708735
127	0x3dd41290	0.10355103
128	0x3d2b6862	0.041847594
129	0x3cb63d72	0.022246096
130	0xbce945db	-0.028475692
131	0x3cbd2062	0.02308673
132	0xbcc086b2	-0.023501728
133	0xbd927594	-0.071513325
134	0x3d13676e	0.03598731
135	0xbc3a03d3	-0.011353451
136	0x3d30cad2	0.043162175
137	0xbe7a83f6	-0.24464402
138	0x3d91c919	0.071184345
139	0xbe28de0e	-0.16490957
140	0xbc2e879c	-0.010652449
141	0x3d457163	0.048203837
142	0x3e112793	0.14175253
143	0x3d38e3f4	0.045139268
144	0x3c351881	0.0110532055
145	0xbd3b9890	-0.04579979
146	0xbd818437	-0.06324046
147	0x3d233230	0.039842784
148	0x3df15d7a	0.11785407
149	0xbca50619	-0.02014451
150	0x3e1f8a98	0.15580213
151	0xbc9c6065	-0.019088933
152	0x3d0c0601	0.034185413
153	0xbd3374e2	-0.04381264
154	0xbc032b45	-0.008005922
155	0xbd55792a	-0.052117504
156	0x3db86310	0.0900327
157	0xbd5008da	-0.05078969
158	0x3ddc1d2a	0.1074775
159	0xbdc85450	-0.09781706
160	0xbe45c587	-0.19313632
161	0xbcaea33a	-0.021318067
162	0xbd1cbe56	-0.038267456
163	0x3ca1daeb	0.019757709
164	0xbe00c329	-0.12574448
165	0xbe945990	-0.2897458
166	0xbd3a312a	-0.045457043
167	0x3be6f772	0.0070485407
168	0x3d8f085d	0.06984017
169	0xbdd0af2e	-0.10189663
170	0x3d7571b9	0.059922908
171	0xbcbc728c	-0.023003839
172	0x3c3880f9	0.011261218
173	0xbd87ac86	-0.06624703
174	0xbcafa354	-0.021440186
175	0xbb9e2c06	-0.0048270253
176	0x3d2a0798	0.04151115
177	0x3c81ea13	0.015858686
178	0x3dbb6dc1	0.09151793
179	0xbe4166fb	-0.1888694
180	0xbe640282	-0.22266582
181	0xbb6a9331	-0.00357933
182	0x3d6ae508	0.057347327
183	0x3dd37e76	0.10326855
184	0xbe4c0426	-0.19923458
185	0xbe8f23d5	-0.27957025
186	0xbe103ba4	-0.14085251
187	0x3d65946e	0.056049757
188	0x3ce38bd4	0.027776636
189	0xbe134413	-0.14381437
190	0x3c95477f	0.018222569
191	0xbcb3755c	-0.021906547
192	0xbd137560	-0.03600061
193	0xbdf1ef42	-0.11813213
194	0x3c5d08d6	0.013490876
195	0xbd94b7ae	-0.072615966
196	0x3dcabd91	0.09899438
197	0xbdcdd041	-0.10049487
198	0x3d7cb87e	0.061699383
199	0xbe1487c6	-0.14504918
200	0xbe666931	-0.22501065
201	0x3d181a6b	0.03713457
202	0x3d1347e9	0.03595725
203	0x3e8fd12b	0.2808927
204	0xbd55735e	-0.052111976
205	0xbe334085	-0.17505081
206	0xbddcb246	-0.107761905
207	0x3dd7c20b	0.10535058
208	0x3c4f5913	0.012655514
209	0xbd32d8f4	-0.043663934
210	0x3d0ed3d6	0.03486999
211	0x3de2ea7a	0.11079879
212	0xbd8be02c	-0.06829867
213	0xbda0185b	-0.078171454
214	0x3da69b9f	0.08135151
215	0xbd9a6a25	-0.07539777
216	0x3dba00c2	0.09082176
217	0xbe0da9ac	-0.13834256
218	0x3d71ac53	0.05900223
219	0xbe47f96b	-0.19528739
220	0x3bab6f29	0.005231757
221	0x3d528de5	0.051404852
222	0x3c8a9baa	0.01691993
223	0x3e8447bf	0.25835988
224	0x3d7405d0	0.059575856
225	0x3d038d7a	0.032117344
226	0xbdd7a219	-0.105289645
227	0x3bd6d78d	0.0065564574
228	0x3cc37178	0.023857817
229	0x3e41b929	0.18918289
230	0x3be6621b	0.007030738
231	0x3dfd479f	0.12367176
232	0xbdce4feb	-0.10073837
233	0xbe4a69da	-0.19766942
234	0x3dcccab7	0.09999602
235	0xbde970e2	-0.11398484
236	0x3e0db0f4	0.13837034
237	0xbe1af060	-0.15130758
238	0x3dc3ea6b	0.09566196
239	0xbe06adc3	-0.13152222
240	0xbd7d27ba	-0.061805464
241	0x3d7b98ed	0.06142514
242	0x3d8464c1	0.0646453
243	0x3d12b9d0	0.035821736
244	0x3d8f556a	0.06998713
245	0x3db2f6d5	0.08738486
246	0x3d5788a8	0.05262056
247	0xbdd574fa	-0.10422702
248	0xbc34b4b5	-0.011029412
249	0x3da6bda5	0.081416406
250	0x3b2e37dd	0.002658359
251	0x3ddf1dd7	0.108943634
252	0xbc962d0f	-0.018332032
253	0xbde78b58	-0.113058746
254	0x3d5661ea	0.052339472
255	0xbe052ece	-0.13006136

StatefulPartitionedCall/keras_lr/dense_3/MatMul_bias f4 [10]
0	0xbd4168e7	-0.047219183
1	0xbd322758	-0.043494552
2	0xbcebf05f	-0.028801141
3	0x3b9e0a70	0.0048230216
4	0x3d9ceb7c	0.076621026
5	0x3d118f56	0.035537086
6	0x3d13111f	0.035905
7	0xbc2f9b91	-0.010718242
8	0xbccf6beb	-0.025320014
9	0xbca5ddd1	-0.020247372
