app/src/main/assets/model.tflite (tflite, 400976 bytes, 18 tensors)

sequential_5/dense_5/BiasAdd/ReadVariableOp f4 [10]
00000000: 268e e23d b2d2 153d f694 f1bd 6945 41bd
00000010: 81e6 76b9 b28c 743d 00fd cfbd 7ceb b0bd
00000020: 042e 9abd 2b1a 21bb
0.11062269 0.036577888 -0.1179599 -0.047185335 -0.00023546258 0.05970449 -0.10155678 -0.08638665
-0.07528308 -0.0024582248

sequential_5/batch_normalization_17/FusedBatchNormV3 f4 [16]
00000000: e0b2 2641 9435 1a41 a3a7 5841 928c f941
00000010: ac2d bc40 10e8 f941 812e 3141 2fac ed41
00000020: 5078 2e41 231d 2341 8190 3441 f952 3042
00000030: 2531 8f41 8e57 2441 3784 ae40 acda 8940
10.418671 9.638081 13.540927 31.193638 5.880575 31.238312 11.0738535 29.709074
10.904373 10.194613 11.285279 44.081028 17.898996 10.271376 5.4536395 4.3079433

sequential_5/batch_normalization_17/FusedBatchNormV31 f4 [16]
00000000: eda0 41c0 1ecc 81be fae6 18be 7337 cdbe
00000010: 6e2a 8bbf 81fa a5be e40b 7fbf b6a1 c1bb
00000020: 6224 ecbf e94f aabf 27fc 77bf 168d fbbe
00000030: dc1a a1bf 5716 1bc0 1acc 83be 1fe4 05bf
-3.0254471 -0.25351042 -0.1493186 -0.40081367 -1.0872324 -0.32417682 -0.9962752 -0.00590917
-1.8448603 -1.3305637 -0.9686913 -0.49131078 -1.2586322 -2.4232385 -0.25741655 -0.5230121

sequential_5/batch_normalization_18/FusedBatchNormV3 f4 [32]
00000000: 21ef ea3e 2107 9e3e febf 943e 732b e63e
00000010: ce32 b33e f458 9a3e df03 c33d cb60 723e
00000020: 12ef e13e d61e a63e 0fa5 b23e 2e9e 1d3e
00000030: 0bb4 ff3e b370 fb3e 9b62 4b3e 4d13 a23e
00000040: 393b 0e3e 14ca a13e 9d30 e33e 4049 eb3e
00000050: 6d62 8c3e 41bd 4e3e 2fdb 003e 884c a63e
00000060: 223a 713e fa42 423e ecb2 253f 54c0 213e
00000070: d1b3 bd3e b697 3f3e 0087 023f 81f8 1f3e
0.45885566 0.30864814 0.29052728 0.44955024 0.34999698 0.3014599 0.09522223 0.23669736
0.4412771 0.324454 0.34891555 0.15392372 0.4994205 0.4910942 0.19861834 0.3165535
0.13889779 0.31599486 0.44373026 0.45954323 0.27418843 0.20189382 0.12583612 0.32480264
0.23557332 0.18970862 0.6472614 0.15796024 0.37051252 0.18710217 0.50987244 0.1562214

sequential_5/batch_normalization_18/FusedBatchNormV31 f4 [32]
00000000: b820 14bf da41 2ebf aca3 46bf 6cf6 42bf
00000010: ce57 a2bf b265 83bf c097 a8bd e9e8 04bf
00000020: 5284 2bbf beca afbf e7a8 27be 8d55 eabe
00000030: 2be2 9cbe 1296 60bf 0ade 52be 307d 3a3c
00000040: d0b9 f4bd 444d 33be cbc7 95be dda2 4abf
00000050: 36c8 a7be 10e2 413d 1028 6bbe 186c 3bbf
00000060: 1c40 8cbf d271 0dbf c807 6dbf 9d67 01be
00000070: deaa 95bf fe47 70be 0d72 8fbe 4f35 afbe
-0.57862425 -0.6806923 -0.77593493 -0.7615726 -1.2683046 -1.026541 -0.08232069 -0.5191789
-0.6699878 -1.3733747 -0.16373025 -0.45768395 -0.30641302 -0.8772899 -0.20592514 0.011382386
-0.119495034 -0.17509943 -0.29253992 -0.7915476 -0.32769936 0.04733473 -0.22964501 -0.7321181
-1.0957065 -0.552518 -0.9259 -0.12637182 -1.169277 -0.23464963 -0.280167 -0.3422036

sequential_5/batch_normalization_19/FusedBatchNormV3 f4 [64]
00000000: 2ccd c03d 17e4 793e 0d2f 873e b554 b63e
00000010: 6ccb 2e3e 4086 083e 3f05 823e 2655 103e
00000020: 0c5e 663e f25f 053e a8ee a93e fcc7 583e
00000030: ea78 bd3d 741b 3e3e 0d50 d83d a017 8f3e
00000040: 6d3d b03e 3608 523e e2b4 e93e bb51 053e
00000050: a938 e53d b0cc 0c3e 0683 893e 9a25 c03e
00000060: 774e 083e 8eb6 263e afc8 333e 5e99 4d3e
00000070: 1031 e73d b718 de3e 3de2 b43e b7e7 b43d
00000080: 5348 753e 471e b23d c22c a43e c300 e53e
00000090: 4b6c 0a3e 3055 ae3e a219 2e3e a253 143e
000000a0: 6a9f a83d 9066 ca3d 1bbf eb3d a782 853e
000000b0: 30ac e53e e2ed c83d f2b6 473e 5c94 213e
000000c0: 2402 b83e 06b8 393e 356b 843e b581 f23d
000000d0: 99eb 153e 77a0 0a3e 3c8b 373e ff19 023e
000000e0: 3bba aa3e 9728 313e 6624 3a3e 3a4c 853e
000000f0: cb9f 8d3e 0361 813e 56f7 703e b1b7 2a3e
0.094141334 0.24403416 0.26403084 0.356115 0.17069787 0.13332462 0.25394627 0.14094982
0.22496814 0.13024881 0.33189893 0.21170038 0.09251578 0.1856516 0.105621435 0.27947712
0.34421864 0.20510945 0.45645815 0.13019459 0.11192448 0.13749957 0.26857775 0.37528688
0.13311182 0.16280577 0.17557023 0.20078036 0.11288655 0.4337823 0.35328856 0.088332586
0.23953371 0.08697181 0.32065398 0.44727144 0.13517873 0.34049368 0.17001966 0.14485028
0.08233531 0.098828435 0.1151106 0.26076242 0.4485793 0.098109975 0.19503382 0.15779251
0.35939133 0.18136606 0.25863042 0.11841146 0.14640655 0.13537775 0.17924207 0.12705229
0.33345208 0.1730064 0.18177947 0.2603472 0.27660975 0.25269327 0.23531851 0.16671635

sequential_5/batch_normalization_19/FusedBatchNormV31 f4 [64]
00000000: 9c35 cabd 7d10 17be 720c e9be 1c3d a13d
00000010: 550e b2be 8abb d43d f87e a93c 9e3c 08bf
00000020: 924c 34bd ac85 7abf d474 75bd 0a29 51bf
00000030: 7824 a0bf a09e d0bb 9b53 b9be 20bd d83b
00000040: 0671 27be e068 dbbe 8058 783a 2cae 9dbe
00000050: 7c44 87bd 57b3 42bf 6625 c9be f488 a1be
00000060: d484 5dbe 54ce eebd d224 75be 00bd 7fbb
00000070: 925c 44bf 084f 603d d03c 3ebe c688 9cbf
00000080: 80de d1bd 69e3 4fbf f2f5 eebe 166a 393e
00000090: 25b9 04bf 6976 02bf b868 92be d890 0dbd
000000a0: aeab 1abf 2888 0fbe b09b 27bf 15df 93be
000000b0: d042 7fbe 7454 45bf a041 bfbe 5ea4 e63d
000000c0: cc49 f7be e08b 5dbf 5ccb 5abd d352 3ebe
000000d0: 7038 8e3d ea88 63be d227 b1be 0cbd f1bd
000000e0: 8c25 62be 94d3 39bf aa77 d8be 683e 953d
000000f0: 8022 5cbe b407 41be 80d4 2f3d 2b5b b9be
-0.098735064 -0.14752384 -0.45517308 0.07872984 -0.3477656 0.10387333 0.020690426 -0.53217494
-0.044018336 -0.9786022 -0.05992587 -0.81703246 -1.2511129 -0.006366566 -0.36196598 0.0066143423
-0.16351709 -0.4285345 0.0009473637 -0.30796945 -0.06604859 -0.760549 -0.39286345 -0.315498
-0.21632701 -0.11660448 -0.23939827 -0.0039022565 -0.7670375 0.05476287 -0.18577886 -1.222924
-0.10247517 -0.81206375 -0.46672016 0.18106875 -0.5184501 -0.5096193 -0.2859552 -0.034561962
-0.6041821 -0.14016783 -0.65471935 -0.28881136 -0.2492783 -0.7708199 -0.37354755 0.11261819
-0.4829849 -0.8654156 -0.053416595 -0.18586282 0.06944358 -0.22220197 -0.34600693 -0.11803636
-0.22084635 -0.7258847 -0.42278796 0.07287294 -0.21497536 -0.18850595 0.042927265 -0.36202368

sequential_5/batch_normalization_20/FusedBatchNormV3 f4 [128]
00000000: c496 833e 1afe 963e 644c 3c3e 486e 153f
00000010: bee0 ae3e a678 e63e f8ea 1f3f d90e a63e
00000020: 5c01 c33e 02a6 d63e 36fb a33e 2c6a 7e3f
00000030: 5186 cc3e 2763 163f 3487 ac3e a0e8 f43e
00000040: 3d69 183f b917 2f3e cf9c 543e 9261 db3e
00000050: 2a53 8d3e a8bb 6d3e 6214 6e3e b85c 073f
00000060: e31d bd3e 11fa c63e 34af 1e3f e96a c83e
00000070: b463 7b3e 3c64 bf3e 27bc 7c3e a63d 9e3e
00000080: acc6 b23e 0203 7f3e 271d 843e 7983 5d3e
00000090: 0cf3 b33e fac4 123e 02d2 063e 9871 0a3f
000000a0: e315 d53e f92d 913e 9dd6 933e e759 8b3e
000000b0: d9cc 393e e4cc 853e f087 853e 0391 dc3e
000000c0: fd3c 8b3e 0e89 6e3e 5335 d53e 1128 333f
000000d0: 1035 a33e 82aa 993e 2c6e 663e fd09 eb3e
000000e0: 23df 813e 2d6f b33e 093a 9b3e 635f 903e
000000f0: 5c92 673e 5153 893e f4cc 783e 7130 993e
00000100: eeb3 653e 4f0e c83e 2e81 803e 5825 8e3e
00000110: 8acc 8e3e ba62 a83e 4204 d93e e932 b33e
00000120: f71c c73e 056d c63e 4c82 8b3e fca1 b33d
00000130: 4cf5 b03e 3693 1c3f 74ea 973e 2fdd 323e
00000140: cb8e 003e 6ff7 ea3e 44ee a33e 62d0 033e
00000150: 82c0 393e 1bd6 b73e bb18 ed3e 524e cc3d
00000160: d32e 693e 4b1a 8d3e 2616 e53e f204 0f3f
00000170: 531e a43e 7d7e 4e3f f5e5 803e 983c 9c3e
00000180: 01d0 c33e e8d5 e83d 99d8 dc3e 22ee 423e
00000190: f9da 9b3e 942f ad3e 236c b73e 8c83 543f
000001a0: dfda 823e 74c0 933e 3c89 393f a5d7 1c3f
000001b0: 3f31 7b3e dbcd 7d3e 9e66 763e 8f7b 0042
000001c0: 9d5d ae3e 27ac 773e b8e0 ac3e 153b 383f
000001d0: f85d 983e ead6 0e3e 8442 c53e 390c 3c3e
000001e0: 70f8 873e f4f8 6f3e 7499 1b3f aa3e 633e
000001f0: 9685 393e 617d 933e 1d64 b73e 3675 043f
0.25700963 0.2949074 0.18388516 0.583714 0.3415584 0.45013922 0.6246791 0.32433203
0.38086975 0.4192353 0.32027596 0.99380755 0.39946225 0.58745044 0.33696902 0.4783373
0.5953558 0.17098893 0.20762943 0.42847878 0.27602512 0.23216116 0.23249963 0.5287585
0.36936864 0.3886266 0.6198609 0.39144066 0.24549752 0.3738116 0.2468115 0.3090641
0.349172 0.24903491 0.2580349 0.21632184 0.35146368 0.14332953 0.13166049 0.5407958
0.4161826 0.28355387 0.28874674 0.27217028 0.1814455 0.26132882 0.26080275 0.43079385
0.27194968 0.2329447 0.41642246 0.6998301 0.3187642 0.300129 0.22502965 0.45906058
0.25365552 0.35045758 0.30317715 0.28197774 0.22614425 0.26821378 0.24296933 0.2991977
0.22431919 0.39073417 0.25098556 0.27762866 0.27890426 0.32887822 0.4238606 0.3499978
0.38889286 0.3875505 0.27247846 0.087711304 0.34562147 0.61162126 0.2967106 0.17467187
0.12554471 0.45891902 0.3201772 0.1287246 0.18139842 0.35905537 0.4630793 0.09975876
0.22771768 0.27559122 0.4474346 0.5586692 0.32054386 0.80661756 0.25175443 0.3051498
0.38244632 0.113689244 0.43134 0.19036153 0.304405 0.33825362 0.3582469 0.83013225
0.2555761 0.28857768 0.7247503 0.6126655 0.24530505 0.24785559 0.24062583 32.120663
0.34055796 0.24186765 0.33765197 0.7196515 0.29759192 0.1394917 0.3852731 0.18364038
0.2655673 0.23434812 0.60781026 0.22191873 0.18117365 0.28806594 0.35818568 0.5174135

sequential_5/batch_normalization_20/FusedBatchNormV31 f4 [128]
00000000: 46d0 04bf cdf6 40bf b469 46bf 1be8 b2be
00000010: e29c ebbe 010a d5be e0c6 a9be 2e9a e1be
00000020: fb70 19bf 6f98 a7be 88ef 02bf 5d60 23be
00000030: 2337 c7be a51f b1be 4e7d c8be 0615 f4be
00000040: b453 64be 66b7 32bf 745f 2dbf 88ed fcbe
00000050: fc8c f8be e66d 08bf eeda f5be 320d e3be
00000060: d470 07bf d20d bdbe dd4d e9be 8883 c2be
00000070: d676 c0be 1f16 a4be 56c3 06bf 31bc dabe
00000080: fe2c cfbe 9a83 e6be 029c 07bf 4285 23bf
00000090: a62c 2dbf 613b 29bf 070b 55bf 60bf d7be
000000a0: d165 d3be e61a 20bf 0863 22bf 38ac 0fbf
000000b0: 5afc 5abf 4636 5dbf 96d2 f8be 7efb e1be
000000c0: bca9 21bf 6aa4 1fbf 01e0 ddbe 6712 e6be
000000d0: 28de 02bf 55ff d9be b73f 0cbf 8cea d0be
000000e0: 6edb e7be 6462 debe 0544 d7be a393 11bf
000000f0: 362e 22bf 8bad f6be b5f4 13bf 1849 44be
00000100: e21e 48bf 5f54 c5be c3d6 e4be 9792 07bf
00000110: 1111 9dbe a6f8 30bf 6f3a c8be c09c 3bbf
00000120: 8d5f abbe 962b c9be dd97 0fbf b6a1 06bf
00000130: 9ba8 0bbf d6e9 a8be a8dc debe 4a0d 26bf
00000140: 9a64 11bf ee41 ddbe a0e4 2abf de66 2bbf
00000150: d3fb 31bf 7763 c9be 2261 18bf 1c81 83bf
00000160: ac31 3dbf 7348 0abf ce47 05bf 0342 a9be
00000170: 49a5 cebe 1b1c c2be 0924 13bf 20ee 12bf
00000180: d266 12bf e424 91bf aa83 d2be fc5b 0dbf
00000190: cd72 08bf d35b c4be 28fe e7be 2455 afbe
000001a0: 9d33 cfbe 42ed 08bf a877 f0be 1cd5 e1be
000001b0: 860e 4abf 0cef 0bbf 61c1 07bf 4988 ad3b
000001c0: bb5f 08bf 4ed2 0abf 7214 e6be 7246 88be
000001d0: 9ca6 d5be fd82 e3be 1c65 c3be c9a1 04bf
000001e0: 4a27 00bf 0a08 08bf 40f9 c5be ee86 27bf
000001f0: 7d0f 81bf 957f b5be 871a 18bf 1702 ecbe
-0.518803 -0.7537659 -0.7750504 -0.34942707 -0.4601813 -0.41609195 -0.33159542 -0.44062942
-0.5993802 -0.32733485 -0.51146746 -0.15954728 -0.38909253 -0.34594455 -0.391581 -0.4767229
-0.22297555 -0.69811094 -0.67723775 -0.49399972 -0.48545063 -0.5329269 -0.48018593 -0.44346005
-0.5290654 -0.36924607 -0.45567217 -0.37990975 -0.37590665 -0.32048127 -0.5264181 -0.42721704
-0.40464014 -0.4502228 -0.52972424 -0.6387521 -0.67646253 -0.6610623 -0.8321995 -0.42138195
-0.41288617 -0.62541044 -0.6343236 -0.5612216 -0.8554131 -0.8641094 -0.48598164 -0.44137186
-0.6314962 -0.6236025 -0.43334964 -0.44935915 -0.51120234 -0.42577615 -0.5478472 -0.40803945
-0.452846 -0.4343444 -0.42044082 -0.568659 -0.6335176 -0.48179278 -0.5779527 -0.19168508
-0.78172123 -0.38540933 -0.446951 -0.52958053 -0.30677083 -0.6912941 -0.3910708 -0.73286057
-0.33471337 -0.39291066 -0.560911 -0.525905 -0.54554147 -0.32990903 -0.43527722 -0.6486403
-0.5679413 -0.43214363 -0.66755104 -0.6695384 -0.6952488 -0.39333698 -0.5952321 -1.0273776
-0.7390392 -0.540168 -0.5206269 -0.33058175 -0.40360478 -0.37912068 -0.5747686 -0.573946
-0.5718814 -1.1339383 -0.41116077 -0.5521848 -0.5330017 -0.38351306 -0.45311093 -0.34244645
-0.40469065 -0.53487027 -0.4696629 -0.44107902 -0.7892841 -0.5466163 -0.5302945 0.0052957875
-0.53271073 -0.5422715 -0.44937474 -0.26616246 -0.41728675 -0.44435874 -0.38163078 -0.51809365
-0.5005995 -0.53137267 -0.38666725 -0.6544026 -1.0082852 -0.354489 -0.5941548 -0.46095344

sequential_5/dense_5/MatMul f4 [10, 128]
00000000: 5224 bebd 19bb 19bd 9e3a eebe 3e14 853e
00000010: 3836 1e3e 012f 3c3e 05c8 d6bc 31b9 db3e
00000020: a46d f83d cad4 44bd 8e17 37bf 37ce acbd
00000030: c936 9c3e 0258 04be 5d62 1ebf 3d1a d23d
00000040: ed87 9e3e 53c8 753d c6d2 4b3e 6a6b e5be
00000050: 71eb 9a3e 8385 1fbd c9df 273e a2b5 fc3c
00000060: e691 bbbe ea9d 19bf cc5f 9bbc 4226 0fbf
00000070: 6b72 b63e e4ae aabe 3837 54be edff f1bd
00000080: a911 993e a12f 8c3e 6547 0e3e b094 b4be
00000090: 7cd6 1bbe 13ee 923e 7947 933d 1c96 4abe
000000a0: 7a71 643e f927 71be c8af 01bf da93 1fbe
000000b0: 5289 a7be f9ae 0e3e e9ab 983e 07e7 863e
000000c0: 63f8 aabe ab23 51bf c4c2 463e 0346 c5bc
000000d0: 11eb 9a3d 76a1 14bf ce43 aebe f0be 353e
000000e0: 18aa af3d 1176 3cbe 2b15 03bf fdbf 4cbf
000000f0: 4656 c7be f966 9c3e 507a cb3d 7932 883e
00000100: 735b 88bf 4b14 5c3e 4b4a b43e 86f8 963e
00000110: 5f53 883e 6386 5b3e e53d 333e c664 9abc
00000120: bf04 433d a18b 05bf 3b6b c83d 560e 6cbe
00000130: 5206 0dbe a32a b9be 037b 153e 6140 21bf
00000140: 17cb 833e 7343 ebbe 7c4c e1bd 31c4 d13e
00000150: b0af 73bf f957 933e e304 6fbe c602 743e
00000160: 1100 edbd b628 443e a5f6 b4be 015b 03be
00000170: d9f3 7a3e 7a4b acbb 9c2b 57bf fc7e b3be
00000180: cb7a ac3d a50a 1bbe cc60 9ebe c2a6 e13c
00000190: ad56 43bf b258 253e b517 5b3e 5fcd b1be
000001a0: f7f3 62be fb5e 8a3e 3be5 adbd 013a 08bf
000001b0: e3ba 07bf 559a 1d3e c8b1 8d3e 4bf0 99bd
000001c0: ebd1 babe 63b5 8a3e 6418 143e c009 d0bd
000001d0: 063c 8fbe d658 a33e 9a29 d3be f261 8e3e
000001e0: f90e a4bd 9ce6 963e 257b 12be 4dd9 fabd
000001f0: b8ce 83bd 57cb e5be d46d 8f3e b49b 933e
00000200: 7c07 553d 0ec5 143b fb85 26bf 91a7 f4be
00000210: ca13 b03e 92fe 703d 52e0 d03d bb84 133e
00000220: ad5e 8d3e b43c b03d 213f c6be 3b1e 8dbe
00000230: 4822 523e c86e 09be ba3c 11be 2b83 b13d
00000240: dae9 1e3e c507 903c 2b2e 683e 62db 0abf
00000250: bdfe 2fbf 1304 02be 62ac 3bbf 9fd0 c73e
00000260: 1614 01bf f243 45bf fa67 343e f363 7e3e
00000270: 142d 0fbf bb48 7abe bb5d 4fbf 5849 aabe
00000280: 0689 9e3e ea3c 93be 5916 98be 15ab febd
00000290: 8531 8cbd b755 47bf 8d68 b5be 2a0f 383d
000002a0: 0313 653c a872 00bd d5a9 02bf 70a0 cf3e
000002b0: c3ee 083e f28d da3d 8a62 27bf 5f73 2d3e
000002c0: 860b 703b 773c bdbc f0c7 473e a60d 583e
000002d0: e29b c3bc 3c78 ecbe 5a9e 763d 38ff 7ebe
000002e0: 0a4a 9f3e dadb b1bc a64b a13d 5dd8 513e
000002f0: fa9a 6539 4497 12bf 3f13 553e 714a 9dbc
00000300: 365e 19bf 9205 d83d 80e9 06bf bf5c c3be
00000310: 86f0 603e ea68 b93d 482f 06be ace0 953d
00000320: f7d3 84be 7eee 02bf cc72 d3be 416f 003e
00000330: 2700 f6be a126 6ebe 9902 17bf f550 3c3e
00000340: 622d 02bf a12a d33d a069 85be 6780 713c
00000350: faff 423e eb5e 52bd be8c 47bf 4caa 82be
00000360: 88ce dbbd 0a05 ee3e 41b0 903e 0d57 cebd
00000370: 2332 f73d 9b55 eebe 988d ae3d 7424 83be
00000380: 1259 06bc e127 dc3d 70e4 a03e b26d 2dbe
00000390: cfe5 27bf 47c1 873e cc7c fcbe 3f62 2cbf
000003a0: 2ffd 693e f529 61bf 1df2 aabc 5e6a a6be
000003b0: 72b0 26be e6d1 0cbe 6631 f5be 1067 71bd
000003c0: ba81 37bd 211e 513f b426 a5be 4e5b 31be
000003d0: 9736 ce3e 45cc c0be ea62 c1be 760c f6be
000003e0: 8418 08bd d3f2 b63b fe52 0d3d 790f 083e
000003f0: ea80 bfbe 455d eebe 1083 b53d 349f 923e
-0.09284271 -0.037531946 -0.46529096 0.25992006 0.1545037 0.18377306 -0.026218424 0.42914727
0.12130287 -0.048054494 -0.71520317 -0.0843777 0.30510548 -0.12924197 -0.6186884 0.10258911
0.30963078 0.060005497 0.19904622 -0.44808513 0.30257753 -0.038945686 0.16393961 0.030848328
-0.3663475 -0.6000658 -0.018966578 -0.5591775 0.3563417 -0.33336556 -0.2072419 -0.11816392
0.29896286 0.27380088 0.13894422 -0.3526969 -0.15218538 0.2869726 0.07191367 -0.19783825
0.22308913 -0.23550405 -0.50658846 -0.15583745 -0.32721955 0.13933934 0.29818657 0.26348135
-0.3339263 -0.8169505 0.19410235 -0.024081236 0.075643666 -0.5805887 -0.34036106 0.17748618
0.08577365 -0.18404414 -0.51204175 -0.7998045 -0.3893301 0.30547312 0.09935439 0.26601008
-1.0652908 0.21492116 0.3521293 0.29486483 0.26626107 0.21437983 0.1750408 -0.01884688
0.047611948 -0.5216618 0.097860776 -0.23052344 -0.13771942 -0.36165342 0.14597706 -0.6298886
0.25740883 -0.45949897 -0.11000916 0.40969995 -0.9518995 0.28778055 -0.23341708 0.23829183
-0.11572278 0.19156155 -0.35344425 -0.12827684 0.24507083 -0.005258021 -0.8405092 -0.3505782
0.084218584 -0.1514078 -0.30933225 0.027545337 -0.7630413 0.16147116 0.21395762 -0.34726998
-0.22163378 0.2702559 -0.08490988 -0.53213507 -0.5301954 0.15390904 0.276747 -0.07516535
-0.3648828 0.27091512 0.1446243 -0.1015811 -0.27975482 0.31903714 -0.41242677 0.278091
-0.08010668 0.29472816 -0.14304788 -0.12248478 -0.06435913 -0.44881698 0.2801348 0.2882973
0.05200909 0.0022700462 -0.6504819 -0.47784093 0.34390098 0.058836527 0.10199036 0.14406101
0.27611294 0.08605328 -0.3872004 -0.27562127 0.2052089 -0.13421166 -0.14183322 0.086675964
0.15518895 0.01758183 0.22673862 -0.54241 -0.68748075 -0.12696867 -0.7330991 0.39026353
-0.50421274 -0.770568 0.17617789 0.24842815 -0.5592816 -0.24441807 -0.81002396 -0.33259082
0.30963916 -0.2875741 -0.2970455 -0.12434975 -0.068453826 -0.77865165 -0.35431328 0.044936337
0.0139815835 -0.031359345 -0.51040393 0.40552092 0.1337233 0.10671605 -0.65384734 0.16938542
0.0036627962 -0.023100121 0.19509864 0.21098956 -0.023878042 -0.46185482 0.06020961 -0.24902046
0.31111175 -0.021711279 0.07875757 0.20492692 0.00021896875 -0.57262063 0.20808123 -0.019200535
-0.5990938 0.105479375 -0.5270004 -0.38156697 0.21966752 0.09053214 -0.13103974 0.073182434
-0.25942966 -0.5114516 -0.4129852 0.1254244 -0.4804699 -0.23256923 -0.5898834 0.18390258
-0.508505 0.10310865 -0.26057148 0.014740086 0.1904296 -0.051360052 -0.7794913 -0.2552055
-0.10732752 0.4648822 0.2825947 -0.10075197 0.1207011 -0.46549687 0.085231006 -0.2561375
-0.008199947 0.10749794 0.31424284 -0.16936377 -0.65585035 0.26514646 -0.49313962 -0.6733741
0.22850488 -0.87954646 -0.020867402 -0.32503027 -0.16278246 -0.13751945 -0.4788925 -0.05893618
-0.04480145 0.816866 -0.3225609 -0.17319986 0.40276024 -0.37655845 -0.37770778 -0.48056382
-0.033226505 0.005583146 0.034502976 0.13287152 -0.3740304 -0.46555534 0.08862889 0.28637087

sequential_5/conv2d_17/Conv2D f4 [16, 3, 3, 1]
00000000: 9bce 483e 50cb 263d 0565 45be 96d9 913e
00000010: 000e fbbb 3e59 b1be 1c87 d63e 2597 1b3d
00000020: 2d44 ebbe 43e8 7fbe 38d5 a73d cf90 e93d
00000030: 82e9 c2be 4446 8c3e 6eba ab3d 1202 10be
00000040: 543d 033f 53f7 a23e c13d f1be 39a9 afbe
00000050: 5599 13be 90d6 48be 751e 78bb 2075 993d
00000060: 81d2 f13d f197 053f 6d90 e43e c91d b8bb
00000070: a8c7 913b 1565 33bd 3378 6fbc 2e47 8b3c
00000080: e909 d5bb 08ac 7f3c 79b3 c3bc b088 36bd
00000090: 4d42 92be a57f b63d 7428 803d feb0 b5be
000000a0: 93ba 763e 48d5 593e 65c5 64be 1898 b53e
000000b0: 681b aa3e e734 2039 da73 1e3b 0806 a9bb
000000c0: f274 3d3c 25f5 27bd 82cd 5abd 2e37 a2bc
000000d0: 8a99 e3bc f19b a73c c317 96be 7310 afbe
000000e0: 76ab 8ebe 815a 28bd 2a83 57be d0be 06be
000000f0: c0c3 063f 142b b93e 2c47 5a3e 7dad c6bc
00000100: b108 89bc 62dd 79bc a27c 97bd ab61 ff3b
00000110: 901b 3c3d 77d0 1bbd 4679 af3d 8b04 963d
00000120: 5b34 a2be 2606 2b3d 619b 913e d29c 05bf
00000130: d2d1 b3bc d5d4 9c3e 74ab a5be fcf2 233d
00000140: 6434 423e b7ef 39bb 9a9a d2bd 430c cbbe
00000150: eed4 873e a546 333d 9470 c0be 27e8 f13e
00000160: 1edc 563e 5b11 74be 97f6 d1be 5808 cdbe
00000170: d0f9 5ebe 8094 33be a873 01be 70d2 02bd
00000180: d783 7d3e 451c da3e 0cf9 a43e 06ec 94be
00000190: fae6 6d3e 9de5 d83e 6928 e5be ef2d b9be
000001a0: bf60 a2be 0120 e83e 5d3d de3d 5453 27bf
000001b0: ccd2 0a3f 3c38 7b3e 7bcb f63c bfb9 133e
000001c0: c384 9fbd d8c7 c0be c40d c8bd de94 9abe
000001d0: af2f 0abf aefc c7be 7a82 84bd ac24 653e
000001e0: 7fb3 f7be 39fa a4bd 09b0 ae3e 1e98 3abe
000001f0: e116 603b d0bb 7a3e 312d 2e3d 17f6 d0bd
00000200: 982f 8ebe 0605 953e e2c9 603d 5f4c 4abe
00000210: 083c 353f 29bf 933e f005 31be 0abb c13e
00000220: c590 093e 7844 bfbc 496b d83e 5490 02bb
00000230: 18b8 80be 1d3b 2a3f 1b5e cb3d 0645 c2be
0.19610064 0.040721238 -0.19276817 0.28486317 -0.007661581 -0.346384 0.41899955 0.03798594
-0.45950451 -0.24990945 0.08194965 0.11404573 -0.38068777 0.27397358 0.08385168 -0.1406329
0.51265454 0.31829318 -0.47117427 -0.34308794 -0.1441396 -0.19613099 -0.003785995 0.07493043
0.118077286 0.5218497 0.44641438 -0.005618785 0.0044488497 -0.04379757 -0.01461606 0.017001715
-0.0065014255 0.01560498 -0.02388929 -0.04456395 -0.28566208 0.08911065 0.06257716 -0.35486597
0.2409461 0.21272767 -0.22340925 0.354676 0.33224034 0.00015278497 0.002417794 -0.0051581897
0.0115635265 -0.041005272 -0.053418644 -0.019801702 -0.027783174 0.0204601 -0.29315004 -0.34192237
-0.2786519 -0.041101936 -0.21046129 -0.13158727 0.5264244 0.36165679 0.21316212 -0.024252648
-0.016727777 -0.015250536 -0.07396819 0.0077936254 0.045924723 -0.038040604 0.08568053 0.07325085
-0.3168057 0.04175391 0.28438857 -0.52192414 -0.021950636 0.30631128 -0.3235737 0.04002665
0.18965298 -0.002837164 -0.10283394 -0.39657792 0.2652964 0.043768544 -0.3758589 0.4724743
0.20982406 -0.23834746 -0.41008446 -0.40045428 -0.21774983 -0.17537117 -0.12641776 -0.03193897
0.24757324 0.42599693 0.32221258 -0.29086322 0.23232642 0.4236268 -0.44757393 -0.36167857
-0.31714436 0.45336917 0.10851548 -0.65361524 0.542279 0.2453317 0.030126324 0.14426325
-0.07788994 -0.3765247 -0.097682506 -0.30191702 -0.5397901 -0.39059967 -0.06470199 0.2237727
-0.48379132 -0.08055539 0.3411868 -0.1822209 0.0034193324 0.24485707 0.042523567 -0.10203188
-0.27770686 0.29105395 0.05488003 -0.19755696 0.70794725 0.2885678 -0.17287421 0.37838012
0.13434131 -0.023348078 0.42269352 -0.0019922452 -0.25140452 0.6649645 0.099300586 -0.37943286

sequential_5/conv2d_18/Conv2D f4 [32, 3, 3, 16]
00000000: 35fc 873e 5968 2bbf 184c ecbe 7592 5fbe
00000010: ea79 03bf 3f08 34be ecc7 ecbb 39ea 18bc
00000020: b821 84bd 175c 303e 2770 47be 792a f1bd
00000030: 8c05 ce3d 9f45 3dbd be30 44bd e73b 47be
00000040: ec93 debe dbd6 cebd d972 693d 1e46 743c
00000050: 33a0 de3e bbd6 d13e 9955 dcbd f558 e3bd
00000060: 740d a33e cc09 7dbe 0628 ed3c 6627 59be
00000070: d32b 4cbf 8516 183f ecdd 5bbf c55f f8be
00000080: 9c64 c0bd b333 86be bb27 49be 96f5 b53d
00000090: 5113 e1bd fe53 113d 3a7f 6b3c ca31 30be
000000a0: c270 903d 0266 853d 2b7f 873e c702 66be
000000b0: 6bfc b2be 109e ccbb 5044 18bd 7c2a 9cbe
000000c0: f49b 063e 224e 50bd 3e08 b4be 4003 533e
000000d0: 6bff 563d 7b0d d8bd 1c05 f7bd a926 943e
000000e0: 14ec 8dbe a906 ba3e 61d7 b23d 4025 2fbf
000000f0: 68c1 f6bd 101a 733c d2b2 7a3e 3b00 db3c
00000100: f0c1 48ba e6fd 863d a0b2 a0be 0b5d 453e
00000110: f3c6 553e 3eaa 2bbb 243d 94be 1458 583d
00000120: b60c b43e b06d 783d b021 c6bd a8d0 8c3e
00000130: 4182 80be e832 113f 02fe 2cbf df8c f4be
00000140: 7ac7 79bd 5301 b4be 2d63 febe 2b36 09be
00000150: f5cd 2dbe 1fc5 31bd 3c83 563d fc7a b93d
00000160: 52e3 b9bd e926 98be 52d8 673e fb4f 3a3e
00000170: 8893 353e 9fbd 33be 9b4b 91be 44ab 71be
00000180: bd42 3cbe 6a72 79be 2b26 00bf f029 903d
00000190: 9bc5 7abe 6201 9ebd d2c6 04bf aefc a3bd
000001a0: c1a3 4fbe 22f2 04bf 6703 e9be 4473 4abf
000001b0: 3e02 6b3e 14db ffbd 6e13 83be c603 603d
000001c0: 647b 05be ef1d f73c 2b61 ecbe 54cc 96be
000001d0: 753c 1ebe 9f39 603e dd54 c8be 780c 7c3e
000001e0: 9e30 5fbe 70c6 c0bd 4ecd aebe d9ff 883e
000001f0: bb4c 0a3c 3e13 b0be b5e4 a8be f9bb bebe
00000200: a073 4a3d 294b 09bf 1692 f73b 2a73 68be
00000210: 08ae 6cbe efcc 1ebe deb2 d43d bd0e 38be
00000220: 920e 4fbe ae2e 8bbe 4082 6d3e f057 463e
00000230: 4e29 543d 5870 6ebe 5785 39bf 8a4c c4be
00000240: 33f0 0e3c 2b1a 84bd a2a7 c2bd adb2 b7be
00000250: 331f abbc fb96 ebbe 3247 b5bd 4cca 28be
00000260: 6d15 843e 1404 80be 7d59 8cbb 1385 cf3e
00000270: ef47 6c3d 0522 433e d21b eabe d8e5 12bf
00000280: 51c5 8ebe b941 663e e3ec 6e3e 2ec3 da3d
00000290: 779a e43e 963b 24bf 2ea5 a13c 669b 0bbe
000002a0: 1389 ca3e f8b6 48bd 1c65 423e 7d58 753e
000002b0: d0d7 3b3e 8ea0 ba3e 6416 97be bff6 b03e
000002c0: 73a1 ff3c f2b1 873d ce85 92bc d802 bfbe
000002d0: f84e 553e 9c7c bdbc 5101 8e3e 2c66 4e3b
000002e0: e903 1abe 5a3b a83b ea21 113d 29df 8dbe
000002f0: b7ca 983e b056 ddbe 2251 013d c000 453e
00000300: 51ed 773d c28c d33b 2b9b b3bb 1d2a ebbc
00000310: b330 3d3d c627 1dbf 1e65 aabd 78b7 1d3c
00000320: a0fc e13d 3991 da3d 30bf f2bd 93d4 413e
00000330: b650 7bbd 49f0 a13e 7a1d 40bf f0ef 89bf
00000340: b5b5 15bf f812 cf3e 3162 81be bd64 9ebe
00000350: c10a 1f3e d814 64be 9e7c c8be eaf7 a03d
00000360: dc8b 823e 7999 5cbd c3f3 85be 4d9c ea3e
00000370: 6e35 1ebd e47b 873e 28ff 3fbd 0d94 8fbe
00000380: d1a5 57bd 8b6f e53d 4b55 0bbe acc1 9e3d
00000390: 91bf 403d 753c debb 56e4 ce3c 2fe5 e7bd
000003a0: b63b 64bd 314d d5bd 66ae 1abe 93fc 383e
000003b0: 100d 803e 22eb d23d d7b5 48bd 0def 0f3e
000003c0: aa48 75bd d9b0 09bf 3231 82be 4ed5 76be
000003d0: 1c93 59bd 7002 d2bd fc39 18bf e08c 0b3e
000003e0: b00a 6dbb 7e89 d8be 6849 92be e345 41bd
000003f0: 28e4 d7be 3502 e63d f9e1 60bf 71f6 87bf
0.26559606 -0.66956097 -0.46151805 -0.21833213 -0.513579 -0.1758127 -0.007225981 -0.009333187
-0.06451744 0.1722263 -0.19476376 -0.11775679 0.10059652 -0.046208974 -0.047898047 -0.19456445
-0.4347223 -0.10099574 0.056994293 0.014909295 0.43481597 0.4098414 -0.10758514 -0.111009516
0.318462 -0.24710768 0.028949749 -0.21206436 -0.7975437 0.5940936 -0.858855 -0.48510566
-0.0939419 -0.26211318 -0.19644062 0.088847324 -0.109900124 0.03548049 0.014373595 -0.17206493
0.07052757 0.06513597 0.2646421 -0.22461997 -0.34958205 -0.0062444285 -0.037174523 -0.30501163
0.13145429 -0.050855763 -0.35162538 0.20606709 0.05248968 -0.10549446 -0.120615214 0.28935745
-0.27719176 0.36333206 0.087324865 -0.68416214 -0.12048608 0.014837757 0.24482277 0.026733508
-0.00076582935 0.06591396 -0.3138628 0.19273774 0.20876674 -0.0026194002 -0.28952897 0.052818373
0.35165948 0.06065148 -0.09674394 0.27502942 -0.25099376 0.567183 -0.67575085 -0.47763726
-0.06098125 -0.3515726 -0.4968504 -0.1339957 -0.16973098 -0.04340088 0.05237125 0.090566605
-0.09076561 -0.29717186 0.22641113 0.18194573 0.1773206 -0.17552803 -0.28377995 -0.23600489
-0.18384834 -0.24360052 -0.5005824 0.07039249 -0.24489443 -0.077151075 -0.51865876 -0.08007179
-0.20277311 -0.51931965 -0.45510408 -0.7908213 0.22950074 -0.12492958 -0.2560076 0.0546911
-0.13035351 0.03016564 -0.46167883 -0.29452765 -0.1545275 0.2189698 -0.39127246 0.24614131
-0.2179589 -0.09412849 -0.3414101 0.26757696 0.0084411455 -0.3438968 -0.3298699 -0.37252787
0.049426675 -0.5363031 0.0075552566 -0.22700182 -0.23113263 -0.15507863 0.10385679 -0.17974372
-0.20220402 -0.2718405 0.23194218 0.19369483 0.051797204 -0.23285043 -0.72469085 -0.38339645
0.00872426 -0.06450304 -0.0950463 -0.35878506 -0.0208889 -0.46013626 -0.0885147 -0.1648342
0.25797597 -0.2500311 -0.004283129 0.40531215 0.05768579 0.19055946 -0.4572435 -0.57381964
-0.27884915 0.22486009 0.23332553 0.10681759 0.44649097 -0.6415342 0.019732084 -0.13633499
0.39557704 -0.049002618 0.18983883 0.23959537 0.18344045 0.36450619 -0.2950927 0.34563252
0.031204915 0.06625737 -0.017886069 -0.37306857 0.20830905 -0.023130707 0.2773538 0.0031494005
-0.15040554 0.0051340284 0.035432734 -0.2770932 0.2984216 -0.432302 0.031571515 0.19238567
0.060529057 0.0064559886 -0.005481144 -0.028706605 0.04618902 -0.61388814 -0.08320068 0.009626262
0.110345125 0.1067223 -0.11852872 0.18928747 -0.06135627 0.31628636 -0.7504498 -1.0776348
-0.5848039 0.4044416 -0.25270227 -0.30936232 0.15531446 -0.22273576 -0.39157575 0.07859786
0.2549733 -0.0538573 -0.26162538 0.45822373 -0.038625173 0.2646171 -0.046874195 -0.2804264
-0.05264837 0.11202916 -0.13606755 0.07751784 0.047057692 -0.0067821094 0.025255363 -0.1132301
-0.055721007 -0.10415114 -0.1510559 0.180651 0.25009966 0.10298754 -0.04900154 0.14056034
-0.05988375 -0.53785473 -0.25428158 -0.24104807 -0.05311881 -0.10254371 -0.5946348 0.13627958
-0.00361697 -0.42292398 -0.2857163 -0.04718579 -0.42166257 0.1123089 -0.87844807 -1.0622083

sequential_5/conv2d_19/Conv2D f4 [64, 3, 3, 32]
00000000: 6ed0 153f ee39 d53d b09a af3e 0b17 b63e
00000010: f1b8 423e ff3d 6b3d fb78 afbe 21f6 e9bd
00000020: dd2c 49be 835d b83d 5844 a63e 689c 82bc
00000030: 9d03 00bf 6c9e a53e d2f5 10bf 13d6 233e
00000040: 666c 9bbd f56b 30bd 5214 9f3c 55ef ef3b
00000050: 9549 b23d 333f 0dbf 6343 cebe af97 663e
00000060: e1b2 563e 7c07 b83d 4640 9cbd 513d 34bf
00000070: e8a9 9dbe b1d1 5bbe 7828 8abe 1cfb 3fbe
00000080: be71 7e3c eb99 d03e 7cec 363e 2a3c 543e
00000090: 4a5b 39bd 9575 2b3e 4516 e0be a364 94be
000000a0: 5c15 e5bc a10d 61be b3b6 923d 2947 da3e
000000b0: b5c8 1a3d ef09 ba3d bb3d 85be f69f 58bc
000000c0: 7aeb dabd 71e0 183a 5d8e efbd 0ece 8f3c
000000d0: a35c 0d3e 2dfa 003f 9e74 073e d5e1 b83e
000000e0: 1448 aebd 1a26 6c3e d87e 96be 3102 e73e
000000f0: 6485 263e e210 233e a18f e73e 15e2 cfbd
00000100: 4925 87be b2dc 1fbe ec40 4f3e b447 0fbd
00000110: cdb6 bd3e bdbd a73d 9dfd bcbe b7ed dfbb
00000120: 54d9 5c3e d6c6 153e 8c76 7cbe 2c1d d7bd
00000130: a8e9 a2be a515 bbbd 233c 70be 1b56 12be
00000140: 5a37 c43c 014e a13e 3d05 cfbe b79c cfbe
00000150: 41ab c3be 9dd8 b43e 1eee 773b 9358 35be
00000160: 1bbc a03e eaac 833e 5747 e4be 793c 30bc
00000170: e780 5dbe b6b0 55be 4e9e c13e f056 943c
00000180: 1643 b63d a4a0 483d 9cd1 7b3e 6beb c43e
00000190: aa83 a33e 5e3d d83d 1577 e4be c7fe 1e3e
000001a0: 577a 653e 73a9 f2bb 22cf 5e3e 5898 01bf
000001b0: 58ad 75bf 05a4 12bd 884c 9fbf 75b4 59bf
000001c0: b540 9bbe 6d70 a0be 18e8 30be 3b88 3a3e
000001d0: cc51 55bd b712 15bf 205b 10bf 43d9 a63e
000001e0: 3c00 02be eaae cc3b 9fd6 2a3d 3bbc 46bf
000001f0: 8acf a2bd c07a a73d 5658 83bf 06d6 4ebf
00000200: e444 943d ac35 3a3e 55c3 2e3d 9049 fe3d
00000210: 14bd 7fbe 7910 d1bc 138c 2fbe ff27 f8be
00000220: 48b5 20be e93f 1ebf 1652 e73d 63e5 2a3e
00000230: b7db f33e d314 683e 2485 9cbe 1ec7 a0be
00000240: ed60 febd a815 a3bd 28c0 1abf f453 973e
00000250: 6c1c 8dbc 0a26 413f cc49 a4bd e648 c63d
00000260: 621a 18be 1d81 ebbd b86b 403d 467b a43e
00000270: a00c 9dbd 2652 a43e d035 b03e df1e 07be
00000280: d8d4 c83d 0a5c b9be 534e 9d3e 311f 80bd
00000290: 1e25 fd3e e060 43be cf01 99be 5b0d 2fbf
000002a0: 647b 87bc 0f2b b0be 70c4 dfbe 2298 453e
000002b0: 0b75 14be 7efb 2fbf dd50 fdbc ff3c 08be
000002c0: 2619 f33d a6d0 9ebe 55bd aabe 721a c9be
000002d0: b151 18be 9447 083e 00a8 c6be 0346 58be
000002e0: 9c1e 1e3d a459 c03d 0933 1cbe f3e2 233e
000002f0: 89d7 413e a1af c2bd 860a 2d3e d7d4 78bc
00000300: f276 0ebe 55f2 bcbd d744 36bb 37c1 3dbe
00000310: 3afa a53e e4a3 5ebd 958b 5fbe 11e2 71be
00000320: 5b6f 5bbc cf93 373e ff5b 2a3d bc21 c2be
00000330: 2e8d 96be 9e94 4dbd a867 35bf 97bb 25bf
00000340: e07d 84be 13cd 07bf d9d9 a3be 3da8 03bf
00000350: 3575 01bf 42eb 12bf e3bb 09bd e9e3 a93c
00000360: 2e44 29bf 2a8a 06bf 7bd2 0dbe d54f 55bf
00000370: d3a3 1e3e 93e8 143e 593f 28bf 3751 4fbe
00000380: 28de 113f 7bd8 c63e 0815 33be bc86 573d
00000390: 3cd6 59bc a977 423d 3528 2abe 4a6c a6be
000003a0: 51c2 22bd 8f9f 2dbf 4ebe 05be c41e d5be
000003b0: 1733 28bd 3e61 38bd 002b c2bc 67c6 cbbe
000003c0: db91 93be 8e72 35be 1448 03bf fc45 113f
000003d0: 3511 f8bd fa8a 613e 60cb 94be d9ce 4d3e
000003e0: 74d1 a7be 9618 3cbe dd30 ddbd 131f 013e
000003f0: f622 e03c 96f5 363e 8805 b93e 069d 8a3e
0.58521163 0.1041144 0.34297705 0.35564455 0.19015862 0.05743217 -0.34271988 -0.114238985
-0.1964602 0.09002211 0.32474017 -0.015943721 -0.50005513 0.3234743 -0.5662509 0.15999632
-0.07589035 -0.043071706 0.01941887 0.007322232 0.08705441 -0.5517456 -0.40285787 0.225188
0.20966674 0.089858025 -0.07629447 -0.7040606 -0.3079369 -0.2146671 -0.26984 -0.18748134
0.015530048 0.4074243 0.17863649 0.20726076 -0.045253076 0.16744073 -0.4376699 -0.2898303
-0.027964287 -0.21977855 0.07163753 0.42632416 0.037789065 0.09083926 -0.2602366 -0.013221731
-0.10689445 0.0005831784 -0.116970755 0.01755431 0.1380487 0.5038174 0.1322808 0.36109796
-0.085098416 0.2306141 -0.2939365 0.4511886 0.16261822 0.15924409 0.45226768 -0.101505436
-0.26395634 -0.15611532 0.2023961 -0.03498049 0.37053528 0.081904866 -0.36912242 -0.0068337577
0.21567279 0.14626631 -0.24654597 -0.10503611 -0.3181889 -0.09134988 -0.2346044 -0.14290659
0.023952175 0.31504825 -0.40433684 -0.4054925 -0.38216594 0.35321513 0.0037831138 -0.1770957
0.31393513 0.2571786 -0.44585678 -0.010756605 -0.21631204 -0.20868191 0.3781609 0.018107861
0.088995144 0.048981324 0.24591678 0.3846086 0.3193639 0.1055858 -0.44622102 0.15526877
0.2240995 -0.007405454 0.21758702 -0.50623083 -0.95967627 -0.035800952 -1.244523 -0.8504098
-0.30322805 -0.31335774 -0.17276037 0.1821603 -0.05207996 -0.5823168 -0.56389046 0.32587633
-0.12695402 0.0062464373 0.041708585 -0.77630967 -0.07949741 0.081777096 -1.0261333 -0.80795324
0.07239702 0.18184537 0.042666752 0.12416375 -0.24974471 -0.02552055 -0.17143278 -0.48468015
-0.15694153 -0.6181627 0.112949535 0.16689067 0.47628567 0.22664194 -0.30570328 -0.31401914
-0.12420831 -0.07963115 -0.6044946 0.2955624 -0.017225467 0.7544867 -0.08021888 0.09681873
-0.14853814 -0.11499236 0.04697773 0.321253 -0.07668424 0.32093924 0.34416056 -0.1319537
0.09806222 -0.36203033 0.3072382 -0.06255949 0.4944238 -0.19079924 -0.29884192 -0.68379754
-0.01653833 -0.3440785 -0.43704557 0.19296315 -0.14497773 -0.6874312 -0.030922348 -0.13304518
0.11870031 -0.3101856 -0.33347574 -0.3927799 -0.14874913 0.13308555 -0.3880005 -0.21120457
0.03860341 0.093920976 -0.15253843 0.16004543 0.18929876 -0.09506155 0.16898546 -0.015187464
-0.13912562 -0.09225909 -0.0027812028 -0.18530737 0.3241747 -0.054355517 -0.2183059 -0.23621394
-0.013393248 0.17927478 0.04159164 -0.37916362 -0.29404587 -0.05019056 -0.7086129 -0.64739364
-0.25877285 -0.53047293 -0.32002142 -0.51428586 -0.5056947 -0.57390225 -0.03362645 0.020738559
-0.6611966 -0.5255457 -0.13849823 -0.8332494 0.15492181 0.14541845 -0.6572166 -0.20245825
0.5697961 0.38837036 -0.17488492 0.052618727 -0.013295706 0.047477398 -0.166169 -0.32504493
-0.039736096 -0.6782159 -0.13060877 -0.41625035 -0.041064348 -0.045014612 -0.023702145 -0.39799806
-0.28822216 -0.1771948 -0.5128186 0.5674741 -0.12112657 0.22025672 -0.29061413 0.20098437
-0.32776988 -0.18368754 -0.108003356 0.1260951 0.02736042 0.17867121 0.36137033 0.27072924

sequential_5/conv2d_20/Conv2D f4 [128, 3, 3, 64]
00000000: 2c46 b6be 7b40 9b3d 01b5 bb3c 52ca 4f3e
00000010: e5fe d3be 6fc8 abbe 51fd 70be 34ef b4bd
00000020: 9c3a aebe 6dd8 c2be b591 72be 3ddd bcbe
00000030: a7cb d3be 0d57 22bd 8ade cbbe 9823 7fbe
00000040: 7ea7 243e c448 1f3f bb64 bcbd e03a d2bc
00000050: 547c a03d 583a 5ebe dc58 30bc f25f 813d
00000060: c7fc c9bd cc87 e03e ffd0 df3d 535c d2bd
00000070: cd18 ebbe e71f 893e ef4d 943d eec1 e9bd
00000080: fbc1 75be 76c0 d0be ff0f c93c 27b7 76be
00000090: 1f9b f63d 8394 bb3e f727 453e e7c9 993e
000000a0: 5dea 99bd 9e02 92be 84c9 403d 3f24 85bd
000000b0: 582a a33e 4b2e 09bf f371 773d 025c 413d
000000c0: 6d33 7cbd c0ff 9e3e 6f98 98bd ed70 1fbe
000000d0: 1050 8ebe 5ee2 ffbe fa52 5dbe 7dc6 a33e
000000e0: e9fc 9cbe d2cf 08bd 8eab e13b d53b 2ebe
000000f0: e56a 753e dc54 8abe a773 2b3e da4d b3bd
00000100: 32b4 68be 91d2 2f3e 342f 5e3e d963 a53e
00000110: bfb5 52be 4c15 06bf 4f8e ea3d 2c4e 1a3d
00000120: 99d5 00bd 51cb 32be 0854 893d 6ad0 42bd
00000130: 047e f3be 1a2f aabe 346e 5fbe d9a9 13bd
00000140: 4503 9bbc 3ca2 8a3e f51b 44be 72af 81be
00000150: 46e8 61be 79c5 29bf 437f 0a3e 65b1 143e
00000160: b3b2 aabc 7c3f da3e 70ca 6c3e 5aa3 18be
00000170: 0d2c efbc a904 153f 0444 5ebd 15e7 babe
00000180: ac43 23bd 4c47 8dbe 2608 d23d 8000 b7bd
00000190: 2a69 0dbe 6d19 5fbd 0542 893e 7e8d 0a3e
000001a0: 652e 37bd 03cc 573d a700 293e bdab e5be
000001b0: 6c79 9d3d ad73 afbe 2523 2d3e 1ea1 8c3e
000001c0: 839c 093e afc6 a53e 71b7 f93d 48d9 e0be
000001d0: d739 a1be 695d d7be 2973 44be 92d5 043d
000001e0: 2985 303e 57df 203e af10 933e 1f8f a3be
000001f0: 6106 243d 918e f4be f627 dabd daee cb3b
00000200: a35b dcbe 47ab 963b 375b 9e3d 472b 8f3e
00000210: 7043 70be cb49 bbbe ae48 edbe 3e2a f0bb
00000220: c335 85be b9a1 9bbd 65dd 5dbe 9b94 8dbe
00000230: 471a f2be 1887 913d ae70 b4be 30f4 69be
00000240: 43ba 793e ce68 c43c b81e 78bd 6dc4 03be
00000250: 0327 f6bd b703 9abf 4586 e63d 6607 b73d
00000260: a1d4 23bd fbad 213e 12b2 e8be e1db 0dbf
00000270: d753 5b3d 23b8 0bbe 1ee3 b53e 9e36 ccbe
00000280: 7bf9 20be fb31 30bf 9b06 9d3e 2efe d9be
00000290: a316 ff3d 60f8 05be 0c2a a93e d38b 88be
000002a0: e81a cbbc 8d39 453d e64c 56be 497b 983e
000002b0: 85fa 343d 9e14 e2be 8aa6 a33e 5211 c4bd
000002c0: 7136 f93d a008 b83e a4fa 3f3e 7238 08bf
000002d0: 88b4 4abf 1743 d2be 3f26 f7be 62f9 e4ba
000002e0: 94f5 82bd 6b5e 183e a35a 283e e400 90be
000002f0: cd23 8d3e 4b59 18be e776 f73c 40de 95be
00000300: 4f34 8fbe 695d 72bc 960d 3cbd 1c5a e9be
00000310: 0212 a4bd 8edb 82be f9a6 473e 8836 0b3e
00000320: 0223 86be e71f 143e f3af 92be 450e 97be
00000330: 1156 83be 9004 b1be cbb3 17be a2f7 8d3d
00000340: 7313 473e 3972 2bbe 270c 413c d647 313e
00000350: 15a7 673c 6d47 19bd 9e99 1bbd 0d6c 65be
00000360: b670 f93d ca63 8ebe 83b1 11be 510e 0d3e
00000370: d412 f83d 3ada 9d3e 665d 0ebd 31b9 c8bd
00000380: 64d9 e53d 46c5 083d bf98 a8bd 16d9 d2bd
00000390: 614c caba c0e9 973c 292a 7ebd de5f b5bd
000003a0: ab83 66be b3e4 8b3e ad58 6cbe 8e86 563e
000003b0: 4210 283e 6260 783d e16f aabd 17c4 cd3d
000003c0: 654e e53d 33fb a03d b594 0cbf 08a6 5cbe
000003d0: ec03 4ebe eb84 143b 61d6 dbbd 802c dcbd
000003e0: f570 e9be db80 30bd 816a 8abd e7e8 bcbd
000003f0: b0b0 9d3e 543b 223e d706 8abe d8a8 1e3e
-0.35600412 0.07580658 0.022913458 0.20292023 -0.41405407 -0.33551356 -0.23534133 -0.08834687
-0.3402909 -0.38055745 -0.23688395 -0.3688754 -0.41366312 -0.0396338 -0.3981822 -0.24915922
0.16079518 0.62220407 -0.091989 -0.02566284 0.07836214 -0.21701944 -0.010763373 0.06317128
-0.098626666 0.43853605 0.10928535 -0.10271516 -0.4591736 0.26782152 0.07241427 -0.11413942
-0.23999779 -0.40771836 0.02454376 -0.24093305 0.12041306 0.36636743 0.19253527 0.30036852
-0.075154044 -0.28517622 0.04706718 -0.06501054 0.31868243 -0.5358626 0.060411405 0.047206886
-0.06157248 0.31054497 -0.074509494 -0.15570422 -0.27795458 -0.49977392 -0.21613684 0.31987372
-0.30661705 -0.033401318 0.006886906 -0.17015012 0.23966558 -0.27017868 0.16743337 -0.087550834
-0.22724989 0.17170168 0.21697694 0.3230274 -0.20577143 -0.52376246 0.114529245 0.037672207
-0.031453703 -0.17460372 0.06705481 -0.04756204 -0.4755708 -0.3323906 -0.21819383 -0.03605065
-0.018922457 0.270769 -0.1915129 -0.25329167 -0.22061262 -0.66316944 0.13525109 0.14520796
-0.020837164 0.4262656 0.23124099 -0.14906064 -0.02919581 0.58210236 -0.054264084 -0.36504427
-0.03985946 -0.27593458 0.102554604 -0.08935642 -0.13809648 -0.054467607 0.2680818 0.13530537
-0.04472198 0.052684795 0.16504155 -0.44857588 0.07689175 -0.3426794 0.16907938 0.27466673
0.1343861 0.32378146 0.12193192 -0.43915772 -0.3148944 -0.42063454 -0.19184555 0.03243024
0.17238297 0.15710197 0.28723666 -0.3194513 0.040045146 -0.4776502 -0.10652153 0.0062235417
-0.43038663 0.0045980546 0.077322416 0.27962705 -0.23463225 -0.36579737 -0.46344513 -0.0073292544
-0.2601758 -0.075992055 -0.21666487 -0.2765244 -0.47285673 0.07105845 -0.35242218 -0.22847056
0.2438746 0.023975756 -0.06057617 -0.12867899 -0.1201916 -1.2032384 0.11256079 0.08936958
-0.0399977 0.15789025 -0.45448357 -0.55413634 0.053546753 -0.13644461 0.3552484 -0.3988542
-0.15720169 -0.68826264 0.30669102 -0.42576736 0.124554895 -0.13083029 0.33039892 -0.26669177
-0.024793103 0.048150588 -0.20927772 0.2978156 0.044184227 -0.44156355 0.31962997 -0.09573616
0.12168587 0.3594408 0.18747956 -0.5321113 -0.7918172 -0.4106681 -0.48271367 -0.0017469341
-0.063944966 0.14879768 0.16440825 -0.2812568 0.27566376 -0.14877813 0.030208064 -0.29271126
-0.27969596 -0.0147927785 -0.045911394 -0.4557656 -0.08011247 -0.25558132 0.19497289 0.13595021
-0.26198584 0.14465295 -0.28649864 -0.29503074 -0.256516 -0.34573793 -0.1481468 0.06931998
0.19441013 -0.16742791 0.0117826825 0.1731256 0.014138957 -0.037421633 -0.037988298 -0.224045
0.12179701 -0.27810508 -0.14227872 0.13774993 0.12112966 0.30830556 -0.03475704 -0.098009475
0.112231046 0.03339126 -0.08232259 -0.10295312 -0.001543414 0.018544078 -0.062051926 -0.08856176
-0.22511165 0.2732292 -0.23080702 0.20949766 0.16412452 0.060638793 -0.083221205 0.10047167
0.11196593 0.078604124 -0.5491441 -0.21547711 -0.20118684 0.0022662233 -0.10734249 -0.10750675
-0.45593992 -0.043091636 -0.06758595 -0.0922411 0.30798864 0.15842944 -0.26958343 0.15494096

std.constant f4 [16]
00000000: 0552 853e 63a9 66be 2edc 7dbd 6338 82bb
00000010: 1fd7 ce3d 786f 77bb 8fc3 b63d a53e 44be
00000020: 5d3a 273e 28fe fa3d fc45 9b3d 11fc 2739
00000030: eff3 483d 47f6 783e e1bb 37bc a373 003d
0.26039138 -0.22525553 -0.061977558 -0.003974007 0.10099625 -0.003775565 0.089240186 -0.19164522
0.16330858 0.12255508 0.07581708 0.00016020263 0.04906076 0.24312697 -0.011214227 0.03136028

std.constant1 f4 [32]
00000000: 14e2 92bc b397 913e ff2c 883e ce39 2d3e
00000010: ed77 103e fb2c a13e 8af8 99be 9cef f8be
00000020: b823 323e dcd8 ae3e 16ac 06bf c2f8 1c3e
00000030: f9cc 5abf 1646 273d 570d 2ebf aa25 fabe
00000040: 3cfa 71bd a114 a3bf aefc 94be 0862 4dbe
00000050: 49ba 10bf c41b bebe 6055 8fbe aa82 5e3e
00000060: 71dc 623e ba7f 8e3e 646e 5fbe e0b0 48bf
00000070: 99f6 193e 6625 03be ee2e fdbe 96a8 35be
-0.017930068 0.2843605 0.2659683 0.16916582 0.14108248 0.3147963 -0.30072433 -0.48620307
0.17396438 0.34149826 -0.5260633 0.15329269 -0.85469013 0.040838324 -0.67989105 -0.4885686
-0.059076533 -1.274067 -0.2909903 -0.20056927 -0.5653425 -0.37130558 -0.27994823 0.21729532
0.22154404 0.27831823 -0.21819454 -0.7839489 0.15035476 -0.12807235 -0.49449867 -0.17740092

std.constant2 f4 [64]
00000000: 8af9 993d 96eb 9c3d 49ec 24be eace 043e
00000010: 2c71 53be 5e65 dbbe 7530 8abf ac36 963d
00000020: 23e2 7cbe 5f88 b63e 605d 66be f4a0 bd3e
00000030: 8ae6 50be 3c0d 8abd 32d5 1f3e 558c c1be
00000040: 867a 0b3f 12a5 1cbb 4ad6 5bbf 5624 21bf
00000050: f14c b4bf b1b5 923e 27cc 203e 8ef2 d73d
00000060: 4c87 65bf 6f64 c43e e26f 113f da3a bbbd
00000070: bf18 40bd bad5 9bbe 31b5 913e b304 8a3e
00000080: bcd2 4abf a26b bdbe 19f4 c83e 505b f23d
00000090: c3b9 973e d7f9 853d 1934 a63e 1d56 08bf
000000a0: df21 6e3c d1c7 a8be 21ec d2be b932 c9be
000000b0: 7ebc 0abe e638 10be 8535 ab3e 3195 0bbf
000000c0: d73c b63e 75e4 28bf 56e5 e43c 7faf 9ebe
000000d0: f72a dcbd d771 05bf 377d c5be b22e 13bf
000000e0: a40b 63be a261 ab3d 86df 0e3e 81f0 a03d
000000f0: 4473 88be a7f1 46be aec3 8ebe 8545 b4ba
0.07518299 0.07662122 -0.1610576 0.12969556 -0.2064864 -0.42850775 -1.0796038 0.073346466
-0.2469564 0.35650918 -0.22496557 0.3703686 -0.20400444 -0.067408055 0.15608671 -0.37802377
0.5448383 -0.00239021 -0.85873854 -0.6294607 -1.4085981 0.28654245 0.15702878 0.105443105
-0.8965957 0.38357875 0.56811345 -0.091420844 -0.0468986 -0.30436498 0.2845855 0.2695671
-0.79227805 -0.3699618 0.39248732 0.11833823 0.29633912 0.06541794 0.32461622 -0.532564
0.014534443 -0.32964948 -0.41195777 -0.3929651 -0.13548467 -0.14084205 0.3343927 -0.54524523
0.35593292 -0.659736 0.027941387 -0.30993268 -0.107503824 -0.5212683 -0.38572094 -0.57493126
-0.2217241 0.08368231 0.13952455 0.078583725 -0.2665044 -0.1942812 -0.27883667 -0.0013753629

std.constant3 f4 [128]
00000000: bd4e 40bf 7bf9 43bf 363e d4be a476 f9be
00000010: 5379 76be 789b efbe 4c9f 1bbf 9411 abbe
00000020: a7e8 c6be bfd0 48bf 5ddf c5be 5244 29bf
00000030: c0e3 12bf fee6 05bf 3fe3 58bf bc23 e9be
00000040: 6c5c 4fbf a41e 04bf 4605 65be 4cc0 48bf
00000050: 7bf7 17bf 4509 abbe 3074 f1be 1005 16bf
00000060: 097a 5ebf 77b1 33bf aed9 e0be bdf9 b3be
00000070: 7bd7 12bf 5c08 3cbf 67f2 33bf 435d 40bf
00000080: 8199 29bf 5916 d7be f081 b7be 0c9a d0be
00000090: b3d6 0abf 0d65 4dbf 8682 27bf b928 e5be
000000a0: 0d41 05bf 0ba6 79be 205b c6be 50be 61be
000000b0: 615a e8be 7313 d6be b53a 1fbf 5929 c8be
000000c0: 5c87 4bbe a900 0ebf 6202 a0be 43cc 13bf
000000d0: 42d5 12bf 0f32 b7be fbbe e4be b36c 17bf
000000e0: c4af f3be c07c 00bf 26aa aabe 59bc f9bd
000000f0: 99d8 e6be 5228 3ebf 9b28 13bf 599a 48bf
00000100: 2ca5 c2be 9155 1ebf b56a 10bf e62d f1be
00000110: b464 18bf 5fbc a1be 8c26 0cbf 36a5 13bf
00000120: 8bc0 5cbf 13e8 15bf dd5c 3dbf d58d c7be
00000130: 2811 0ebe 0a26 22bf 6ca1 13bf e299 bcbd
00000140: eb96 0ebf b5b3 45bf 2eac 14bf 8cb6 1dbf
00000150: 00f6 52be 2e6c 05bf 24d9 8fbe 02c2 013c
00000160: f25c bcbe 4bec 21bf acac febe 28a6 d0be
00000170: 8661 f2be 4487 97be 8f9c 4fbe 3040 08bf
00000180: c2ec 2fbf b0df e6be 92a4 f8be 48b2 b6be
00000190: 77fd afbe ea24 d1be 0f00 32bf 558b 71be
000001a0: bd7f 99be 331f 9cbe a412 42bf ca8f c7be
000001b0: 97d2 aebe 2ff4 a7be 1343 30bf 122d 00bf
000001c0: 9871 83be aab9 2cbf 8c43 1fbf d487 37bf
000001d0: 437f 5bbe 30ba 1fbf 790b 65be 6b76 d6be
000001e0: 35ea d6be 8c9f 8dbe 59f5 13bf 714d c4be
000001f0: b907 8bbe 48f2 1ebf b62b b9be 1908 2dbf
-0.75120145 -0.7655255 -0.41453713 -0.48723328 -0.24069719 -0.467983 -0.6078994 -0.3341185
-0.38849375 -0.7844352 -0.38646975 -0.66119874 -0.5737877 -0.5230559 -0.8472175 -0.45535076
-0.810004 -0.51609254 -0.22365293 -0.7841842 -0.59362 -0.3340551 -0.47158957 -0.58601475
-0.8690496 -0.70192665 -0.43916076 -0.35151473 -0.5736005 -0.73450255 -0.7029175 -0.75142306
-0.66249853 -0.42009237 -0.35841322 -0.40742528 -0.54233855 -0.80232316 -0.6543354 -0.4475763
-0.52052385 -0.24379747 -0.38741398 -0.22045255 -0.45381454 -0.41811714 -0.62198955 -0.39094046
-0.19875854 -0.5546976 -0.31251818 -0.57733554 -0.57356656 -0.3578038 -0.44676957 -0.59150237
-0.47595036 -0.50190353 -0.33332938 -0.121941276 -0.45087126 -0.74280274 -0.57483834 -0.78360516
-0.3801664 -0.61849314 -0.5641282 -0.4710533 -0.5952866 -0.31589028 -0.5474632 -0.57673967
-0.862313 -0.5855724 -0.73969823 -0.38975397 -0.13873732 -0.63339293 -0.57668185 -0.09209038
-0.5569903 -0.77227336 -0.58075225 -0.6160667 -0.20601654 -0.52118194 -0.28095353 0.00791979
-0.36789662 -0.6325118 -0.49741113 -0.40751767 -0.4734003 -0.29595387 -0.20274566 -0.5322294
-0.6872064 -0.45092535 -0.48563057 -0.35682893 -0.34373066 -0.40848476 -0.6953134 -0.23588307
-0.2998027 -0.30492553 -0.75809693 -0.3897689 -0.34145042 -0.32803485 -0.6885235 -0.5006877
-0.25672603 -0.674708 -0.62212443 -0.7169163 -0.21435265 -0.62393475 -0.22367658 -0.4188722
-0.4197556 -0.27660787 -0.57796246 -0.38340333 -0.2715433 -0.6208844 -0.3616616 -0.6759048
